checkpoint_actor.pth (torch, 29087 bytes, 4 tensors)

fc1.weight f4 [256, 24]
00000000: 211e 00be 0381 96bc 5bb9 53bd 7b1f 7d3d
00000010: afca edbd 43d0 393d 86c6 9abc 94c4 2e3e
00000020: cb34 53bd bf93 533d d51c 273d af4f be3d
00000030: 085d 89bd 15bb 1dbd cbf8 4cbd f909 ca3d
00000040: 9b60 b8bd 0dd5 183e dfd1 8abc 0494 393d
00000050: 4b02 78bd cf4d 88be c14c bebd c4b6 053d
00000060: 05ef 8c3d fbd4 973c e9d1 6b3d 934e c13d
00000070: ab61 4d3d 90d6 ccbd 0904 153c fbb2 b23d
00000080: d6d2 e23d e2df 99bc e32a 1d3d 7f2e 353d
00000090: 8e9d 893c b163 28bd 6318 2cbd 8a92 9d3c
000000a0: 9659 21bd a422 adbd 22de 833d 89a8 ac3d
000000b0: 28f3 5ebe f5e7 743e 549f 2a3d 180c 37bc
000000c0: abfb f03c 389c c73d 6bf9 b7bc fcfa 02bc
000000d0: 4ad1 703d b3ef d83c 9c92 3ebc ac53 5abc
000000e0: 8f50 00bd 3da3 8f3d edb0 9a3c 2327 54bc
000000f0: 4abf e1bd bbfe 9b3d 06f3 7abd 2f08 bebd
00000100: 664b 22bd aa3e e5bd fbec 38bc 841f fdbd
00000110: edc1 edbd baf1 c63e a566 fdbc 27f4 23be
00000120: 9d24 f8bd 83df 8d3c fed1 cfbb c152 d13d
00000130: a684 783e 4b4e 393d 4dc9 213b 71da b23d
00000140: c42a ccbd 1159 8abc 2758 393d fc8c 35bc
00000150: 818e 2e3e c305 253e 9330 35bd 9aae 3dbb
00000160: 05a6 90bd 44c8 a5bc 8615 56bc 643f c2bd
00000170: 72bf 403e 4469 3c3e 3433 e43c a944 39bd
00000180: 6428 c53c e19c d9bd 424a 84bb 11ee 48bb
00000190: d300 0e3c 6bc9 e7bd 7a00 cb3c 8aaa 233d
000001a0: 9d85 223d 367e 90bd 667b 833b 1bbb f8bc
000001b0: 3561 01be fb01 453c 86f1 583c bcd1 383d
000001c0: 665a c5bd fdc9 52be a73f d93c 0a0c 9a3d
000001d0: 2fab 67be a2d1 963e 6bd8 90bc 3ae3 aa3b
000001e0: 62e1 c6bd 31be d0bd 72e8 b03c 2b54 03bd
000001f0: a08a 13bd 7fd6 813d a2b9 e4bc 1157 903c
00000200: ffe6 d8bd 7a7d cdbd 3308 05bc 0c26 1b3d
00000210: 6145 3e3c 0168 af3c 5fa1 8ebb f6f3 26bd
00000220: 8a62 0ebe d220 54be 5371 e83c 199b 043d
00000230: 202b 0e3e 458a 423d 05b5 b93c e6be 993d
00000240: f24a 6b3d 6ec5 2dbc 5006 613a 1fd4 343d
00000250: 29e0 e33c 41b1 d9bd 6732 d93b c189 de3d
00000260: 28a9 37bc b4c3 6b3b deae a0bc 88bc a03c
00000270: e4cd 44bd 60d9 863c 5e19 9ebc 9a8b e5bc
00000280: c9ac 1abc 37c9 8e3d 049c e03c 2fde b4bc
00000290: 240f e4bd 8532 863e ac01 903d 8eb3 88bd
000002a0: 0346 eabd c6a9 0dbd 523f 883d 29f5 2dbd
000002b0: d32a 0cbd 2b73 5abd 2865 ee3b 7a69 1bbc
000002c0: f774 04be 48e9 133d b43b 9abc a9e6 6abd
000002d0: 9614 6d3d ddc4 e5bd f69d df3c b6b9 9abd
000002e0: 5620 8ebd 8635 5dbd 3e36 5bba b017 63bd
000002f0: 3f7c 7f3d 5e8f 92be d1c7 7b3d 3f94 a5bd
00000300: dd42 13bd 70ad 4b3d 4deb 65bc f924 173d
00000310: 6427 9e3d b105 b13d 7399 5c3d 8619 6c3c
00000320: 749b 32bd a212 b93d 4822 9b3c 923c 08bc
00000330: 5c5b 8b3d 40c5 09bd 0c27 a9bc 436e 603d
00000340: b51e 45bd 735b bcbc ee8a 3d3d 46b2 943d
00000350: be6e 243e e485 d2bd da29 aa3d 0cb6 aa3d
00000360: 6318 03be 7001 983d 89ed a8bc 43ce d0bb
00000370: 2709 2c3d 107d 35bc 7beb d0bd 5806 783d
00000380: 2926 a9bd 70ea e43d 7317 523c 5719 803d
00000390: fe0b a0b9 7140 80bd ed7a 623d ce60 cd3c
000003a0: dc90 14bb c8d0 a13d 2cd5 34bd 5de5 bfbd
000003b0: 9397 8abd 851a 7abc 2d3a 0abe b1ed 15bd
000003c0: 07e1 91bd 1ab2 74bb 5bf2 9ebc e860 fc3d
000003d0: 1e22 8d3e 27b5 003e 4753 9e3c 6aaa e13d
000003e0: 24d6 0dbe 29a1 afbd 8a64 013d 6ec6 7a3c
000003f0: c1ef 503e 68ab f53d 0a4c 85bc f181 9ebd
-0.12511493 -0.018372064 -0.05169044 0.0617976 -0.116109245 0.04536463 -0.018893491 0.17067176
-0.05156402 0.051654574 0.04079898 0.09292542 -0.067071974 -0.038508493 -0.050041955 0.098651834
-0.09002801 0.14925022 -0.016945777 0.045307174 -0.06054906 -0.26621863 -0.092919834 0.032645002
0.06881527 0.018534174 0.057573233 0.09438815 0.05014197 -0.10001862 0.0090952 0.08725544
0.1107537 -0.018783513 0.038370978 0.044233795 0.01679876 -0.041110698 -0.042015444 0.019234914
-0.039392076 -0.08453873 0.06438853 0.08430583 -0.21772444 0.2391661 0.041655853 -0.011172317
0.02941688 0.09746593 -0.022457799 -0.00799441 0.058793344 0.026481485 -0.011631634 -0.013325613
-0.031326827 0.07013557 0.018883193 -0.012948784 -0.110228136 0.07616945 -0.06126692 -0.09278905
-0.039622687 -0.11193593 -0.011286969 -0.12359527 -0.11609254 0.38856298 -0.030932734 -0.16011105
-0.121163584 0.017318493 -0.0063421717 0.10220862 0.24269351 0.04524068 0.0024686635 0.08733071
-0.099690944 -0.016888173 0.045250084 -0.011080977 0.17046548 0.16115479 -0.044235777 -0.0028943182
-0.07062916 -0.020237096 -0.013066655 -0.09484747 0.1882303 0.1839953 0.027856447 -0.045231495
0.024067111 -0.106256254 -0.0040371725 -0.0030659477 0.008667189 -0.11317714 0.0247805 0.03995756
0.039678205 -0.07055323 0.004012513 -0.030362656 -0.12634738 0.012024398 0.013241177 0.045121893
-0.09636383 -0.20584865 0.02651961 0.075218275 -0.22623895 0.29456812 -0.017681321 0.005215076
-0.09710957 -0.10192526 0.021595214 -0.03206269 -0.036020875 0.0633974 -0.027920548 0.017619641
-0.10590934 -0.100336984 -0.008119631 0.03787808 0.011613221 0.021411898 -0.004352733 -0.040760003
-0.13904777 -0.20715645 0.02837435 0.032374475 0.13883638 0.047495145 0.022669325 0.07507114
0.05744452 -0.010606153 0.00085840095 0.044147607 0.027816849 -0.106295116 0.006628323 0.10866118
-0.011209764 0.0035974802 -0.019614633 0.019621149 -0.048047915 0.016461074 -0.019299205 -0.028020669
-0.009440609 0.069719724 0.027418144 -0.022078602 -0.111357 0.26210418 0.07031569 -0.06674872
-0.11439135 -0.034585737 0.066527024 -0.04247013 -0.034220528 -0.05333249 0.0072752424 -0.009485597
-0.12935244 0.036111146 -0.018827297 -0.05734888 0.05788096 -0.11219189 0.027297001 -0.07554953
-0.06939761 -0.054006122 -0.000836227 -0.055442512 0.06237435 -0.28625005 0.061469857 -0.08084916
-0.035952438 0.04972595 -0.014033151 0.036900494 0.07722357 0.08643664 0.053857278 0.014410382
-0.043605283 0.09036757 0.018937245 -0.008315222 0.06804535 -0.033635378 -0.020648502 0.054792654
-0.048124988 -0.022992825 0.04627507 0.072605655 0.1605787 -0.10279444 0.08308764 0.08335504
-0.12802272 0.07422149 -0.020621078 -0.0063722446 0.042000916 -0.0110771805 -0.10201164 0.060552925
-0.082592316 0.11177528 0.012822974 0.06254833 -0.00030526513 -0.06262291 0.055293012 0.025070574
-0.002266935 0.0790115 -0.04414861 -0.093699194 -0.06767192 -0.015265112 -0.13498755 -0.036603633
-0.07122999 -0.0037337602 -0.019402673 0.12323171 0.27565092 0.12569104 0.01932682 0.11018832
-0.1385122 -0.08575661 0.031590022 0.015306098 0.20403959 0.11995584 -0.01627161 -0.07739628

fc1.bias f4 [256]
00000000: 620b dfbd 9412 97bd 8ecd 6e3e fbd2 313d
00000010: a662 203e d3ab 80bd eee1 0dbe 1a99 31bd
00000020: 7ccb 293d 3082 e8bc 6619 95bc 26e9 f1bc
00000030: 7f7a 6c3c 9df3 7dbd f5cd 003e 9243 8ebc
00000040: ca58 2bbe 5391 1b3e 7fa3 fdbc b634 febd
00000050: bd85 143e a51c 04be 8b26 c83d dbda 213e
00000060: 9b59 8fbd 12e3 bd3d f5b8 f43d 6439 06bd
00000070: 8b86 b4bd ac92 f63d 725e fc3d 2d85 5f3e
00000080: b92d 693e e571 e93d 4bfa 1b3e 4979 b6bd
00000090: 25bd 513d ffc9 dcbc 6fe6 023e 96b8 f7bd
000000a0: 0eed 443e 9977 57be b773 6c3e 47d2 c83d
000000b0: 9339 3bbc 24b5 9ebc 356d a7bd 214e d2bc
000000c0: 3425 693b c52d 093d 2416 143e 55da e7bd
000000d0: e824 3bbd 52e3 ca3d aae2 18bc 945b 2fbd
000000e0: dd76 90bb c55d c6bd 676b 723d eff6 4f3e
000000f0: 7d37 e03c b0d8 a63d c9be 0f3e b30d 28bb
00000100: cfc0 8f3e 52bb 243e 19bd a13d d4be e7bb
00000110: 4288 4b3d 5849 573e 370f 7fbd 1be0 373e
00000120: be97 003e d00e 923e b26c bf3c ab51 493e
00000130: 1662 02be b0e2 9abd 1812 c7bd a0d1 5f3e
00000140: a367 053e 1472 4dbe 63ac 1abe e8bb 24be
00000150: 91d1 343e 0e38 633e 008b c93c fa75 90bd
00000160: ff89 863d 0a86 e63d e228 8dbd e74b afbd
00000170: f5b2 2c3e 271c 473d 52b5 a73c d2bc 843e
00000180: efd3 1f3d d540 0dbe 46cd 38bd 3188 53bd
00000190: 28b7 c73c 0f78 833e af58 57bc d1c5 133e
000001a0: a0ec f1bd 4762 ab3d e530 653e fb61 623d
000001b0: b4e1 023c ba48 9dbd d2de 9ebd e4a7 c5bd
000001c0: b2c9 2dbe 53ac e9bc 8020 9ebd 8150 753e
000001d0: b17e 18be 7ab1 2b3e 275f c7bd 8458 1b3d
000001e0: 2dfd 623d 07dc f73d 765a 203e 9079 c63d
000001f0: 9286 3e3d b7fe 063e 282c b13d 461f 823e
00000200: 15dc 953e 0f33 6b3e 7022 5e3e 6838 cf3d
00000210: 0187 03be 51f6 9dbc 3e63 51bd 139d 36bd
00000220: 75d6 6a3e fb69 603d 9aa9 5ebd dd7c d23d
00000230: 3956 c93d 772b b73d 9a6d 113e 1f34 ca3d
00000240: 21d6 1b3e 01ff 7d3e b6d4 243e 76ce 153e
00000250: 1f23 1bbd f32a 9d3e fc37 893e 2ca1 4fbd
00000260: 1210 7dbb 7f15 12be 7754 2f3e 8291 83bc
00000270: 4f0b bcbd d00b a13d 1544 4bbe 507b 34be
00000280: 4911 fdbd c325 cebd af4e 0b3e 0a82 093e
00000290: 9346 783e 6815 4f3e 0171 24bd 181b 793e
000002a0: 4cb7 c4bd 885d 583e 80c8 94bc 0162 89bc
000002b0: c9c7 3c3c 7868 103d b56e 823d 605c 83bd
000002c0: 3f27 4a3e b574 f2bd 7078 ec3d a228 8b3e
000002d0: 5d9d 67bd b77f 2b3e e880 f53d 1fef 2dbc
000002e0: 840a 15be 7279 463d 6e56 dfbd d4cc 2ebc
000002f0: 4968 553e 481b 1a3e ca6c 3f3e 0944 54bd
00000300: 59a8 07bd ec0e ce3d c13b 373e f3cf a5bd
00000310: 5238 e2bd 1395 4cbd 00cf 1f3e b1c2 80bd
00000320: 5730 fc3d 63f2 9bbd 3692 663c 48ac b8bd
00000330: 18c0 b0bd ae23 08bd 73ef 0dbc f0c4 c0bb
00000340: b11d d8bd 4c6b c93d a05b 163d da9d 283d
00000350: 96bd e13d 10b4 87bd 001d 1d3b 3c29 24bd
00000360: 7d63 cb3c e5f1 463e 373c 5fbd 540f 1e3e
00000370: bcde c33d 37c5 373e 8a35 3bbe 505d 99bd
00000380: cae9 c0bb cabf 80bd 80b2 53bd db2f c2bb
00000390: b1de f13c 0da9 bd3d 4eb4 553e 21ab 70bd
000003a0: bed3 373d 1d8e a03d f790 38be 9e37 16be
000003b0: 9047 1b3e e817 953b b1f9 de3d ec1a 763e
000003c0: c32f 5d3d c120 b7bd cc7f 04bc eb46 0b3d
000003d0: 8c29 8d3c 8075 eebb 6876 583e 8179 623e
000003e0: 33de 4c3e b1b1 fe3d a56f 0e3e bc49 d4bd
000003f0: c722 6fbd 12f3 e33d 4300 163d f128 3f3e
-0.10890843 -0.0737659 0.233206 0.043414097 0.15662631 -0.06282773 -0.13855717 -0.0433589
0.041453823 -0.02838239 -0.018200587 -0.02953012 0.014433502 -0.061999906 0.12578566 -0.017366204
-0.16733089 0.15192156 -0.03096175 -0.124123976 0.14504142 -0.12901552 0.097729765 0.15806143
-0.06999513 0.09271826 0.1194934 -0.032769576 -0.088147245 0.12039694 0.123227015 0.21828146
0.22771348 0.11398677 0.15232198 -0.08909852 0.051205773 -0.026951788 0.12783216 -0.12095754
0.19231054 -0.21041717 0.23091017 0.09805732 -0.011427301 -0.019373484 -0.081751265 -0.02567202
0.0035575153 0.033490915 0.14461571 -0.113209404 -0.045689493 0.09906639 -0.009331385 -0.042811945
-0.004408701 -0.09685854 0.059184458 0.20309041 0.027370209 0.081467986 0.14037623 -0.002564293
0.2807679 0.16087082 0.07897396 -0.007072309 0.049690492 0.21024072 -0.06227037 0.17956583
0.12557885 0.28526926 0.02336726 0.1966006 -0.1273273 -0.075627685 -0.09720248 0.2185731
0.13027816 -0.20063049 -0.15104823 -0.16087306 0.17658068 0.22189352 0.024602413 -0.07053752
0.065692894 0.11256035 -0.068925634 -0.08559399 0.16865142 0.048610833 0.020472202 0.25925308
0.039020475 -0.13794263 -0.04511764 -0.051643554 0.024379328 0.25677535 -0.013143702 0.1443093
-0.11812711 0.08368354 0.22381933 0.055269223 0.007988382 -0.07679887 -0.07757343 -0.09651163
-0.16971472 -0.028524553 -0.07721043 0.23956491 -0.14892079 0.1676692 -0.09734946 0.037926212
0.05541723 0.12102514 0.15659508 0.09691155 0.046515055 0.13183104 0.08651 0.25414485
0.29269472 0.22968696 0.21692824 0.101181805 -0.12844469 -0.019282492 -0.051120035 -0.04458339
0.22933371 0.05478857 -0.054360963 0.10277722 0.09830899 0.08943837 0.14201966 0.098732226
0.15218402 0.24804308 0.16096768 0.1462954 -0.03787529 0.3069683 0.26800525 -0.050690815
-0.0038614315 -0.14266013 0.17122065 -0.016060594 -0.091818444 0.07863581 -0.1985019 -0.17625165
-0.123568125 -0.10065796 0.13604234 0.13428512 0.24245672 0.2022301 -0.04014683 0.24326742
-0.096052736 0.2112943 -0.018162012 -0.016770365 0.011522242 0.03525588 0.06368772 -0.064141035
0.19741534 -0.11838666 0.11546409 0.27179438 -0.056546558 0.16747938 0.119874775 -0.010616093
-0.14554793 0.048455663 -0.10905157 -0.010668952 0.20840563 0.1504947 0.18693843 -0.051822696
-0.033119533 0.1006144 0.17893888 -0.08096304 -0.110458985 -0.049946856 0.15606308 -0.062871344
0.123139076 -0.07614591 0.014072945 -0.09017235 -0.08630389 -0.03323715 -0.008663046 -0.005882852
-0.10552538 0.098349184 0.036708474 0.041166164 0.11022489 -0.06626141 0.0023973584 -0.040078387
0.024827713 0.19428213 -0.054500785 0.15435535 0.095639676 0.17946325 -0.18282142 -0.07488501
-0.005887245 -0.06286581 -0.051683903 -0.005926115 0.029525133 0.092607595 0.20869562 -0.05875695
0.044879667 0.07839606 -0.1802405 -0.14669654 0.15164018 0.004549969 0.108874686 0.24033707
0.054000627 -0.08941794 -0.00808711 0.03400318 0.017231725 -0.0072771907 0.21138918 0.22116663
0.20006637 0.12436236 0.13909777 -0.10365626 -0.058382776 0.11130346 0.036621343 0.18667962

fc2.weight f4 [2, 256]
00000000: 66dc 163d 1e57 fbbd 21de e1bd 08a3 b5bd
00000010: 9b74 f3bd 974c 0d3d cb9b 89bd cb85 ad3c
00000020: 9452 3c3d dc8c 04bd 84df 97bd 089a b13d
00000030: f2e2 4f3b bf05 003d 5c64 043d cc41 143d
00000040: 418b 933e d13d 5f3d 13bd 95bd e217 eabc
00000050: 548a 82bb e219 60bd 4057 cbbd 595a 84bd
00000060: 8881 953d 31d1 c13d c28e 89bd 2aa1 213d
00000070: 566e 723d 3cd5 ecbd 1f6a 9c3d ae3a 68bc
00000080: 586b 07bd d874 a7bd 66c9 7d3d 6240 8d3d
00000090: 2c03 083e 3f4c 32be 875e 813d 0a17 0fbd
000000a0: 9585 d13d 2fdf 133e a094 15bd c6a2 4a3d
000000b0: 7ff7 82bd a2f7 ca3d 09b8 19bd 2c4a 8c3d
000000c0: efab 54be 043a 08bb 30a3 3bbd e4f0 3abd
000000d0: 4409 e33c a40d 953e 5f6f 40bd b190 a3bd
000000e0: d555 ba3d c29f a7bd ddd9 953d e01d c1bd
000000f0: e41a 953d 3f24 a3bd 9b16 9d3d 4806 5abd
00000100: ed7d 2dbd b0a8 c9bd 72f3 703d d036 23bd
00000110: b601 163d 48e0 a53d cabe 67bd f5ef 1cbe
00000120: 8471 3f3e 2a91 84bd 29da 7d3d ea2e db3a
00000130: 5822 44bd f314 a6bd c8f5 93bd c06e fe3c
00000140: 6a60 b03d 9a3f e5ba 907b 363e 1662 78bd
00000150: 873a 043d 8e67 10be 8bad 4d3d 3a44 43bd
00000160: e761 cc3d a0e6 69be b3dc c6bd 98ac b83d
00000170: bb11 af3c ff3e 643e 5f79 983d d353 223d
00000180: d5c4 523e ca7d 5dbd dd3a aa3e beca bcbd
00000190: a8dd 893c 72ad 3b3d b285 ffbd 7e14 68bd
000001a0: f33c 8fbd fb28 5e3d 887c 963d a4ae f1bd
000001b0: a6db 4e3d de73 763d 0a81 afbd ff9f 523d
000001c0: 80cf 57bd b5bf ba3d fd88 883b 1f6c 6cbd
000001d0: 14c2 393e 397d 533e 83ac dd3d b498 cabd
000001e0: 94ac 7ebd 44c2 823d fa07 aa3c 4ad0 b3bd
000001f0: 5645 863d cc18 d0bd ca5c f33d e1bd 9a3d
00000200: 7309 383d 75c0 7cbd 066b aebd c9b2 da3d
00000210: 64a7 e5bd 091c 1bbd a98e 88bd 97da 03be
00000220: 1154 abbd aae9 533d c28e 07be 81ba 4e3d
00000230: 0ba9 363d e41a d0bd dfb5 c13d 1ae2 a4bd
00000240: 50d2 5b3d 66e8 4cbd 3357 a6bd dc1a 8fbd
00000250: aa96 27bd 6937 7f3d 5444 283d 4b3f f53c
00000260: e289 57bb b720 09bd 9f79 6dbd 4248 073e
00000270: 0144 603d 2aee 9c3c af58 d33d 8489 3f3e
00000280: fd16 763d 82e5 21be 2598 f53c eb0c bf3d
00000290: 7fa2 5f3d 49ed 233d 83c9 3bbd c907 e93d
000002a0: c5d1 6ebd 5c57 9f3d 7ae4 393d ef23 09be
000002b0: 69ed 883d 5a59 5fbd d124 9a3e 0f6c 8dbd
000002c0: c404 933d be0d 76bd 04c8 cd3d e2a7 8fbd
000002d0: 3fb8 dc3d f2c9 83bc cc92 a5be 15a9 14bd
000002e0: 9e8f 3f3e 2f52 26bd f795 9d3d e261 9fbd
000002f0: 93bf b2bd 2a83 a0bd 32b1 cd3c 5513 033d
00000300: c46c 0f3d 8641 6c3c 0de8 e8bd ed7f 34be
00000310: 3a69 d1bb 0831 3dbe aa17 a23c 5005 0d3d
00000320: b06f 1d3e ed4a 34bd e011 683d 9617 583d
00000330: 9690 973d a2a4 553e 409a 373d 599b df3e
00000340: 5470 a8bd 1175 85bd 620c 8c3d 6142 233d
00000350: 95c9 84bd b0b4 153c 12db ed3d 00b6 d53c
00000360: 9da4 d5bd bd45 a0bd 90b4 803d 85e3 9bbd
00000370: 3390 d4bd 2ac9 473d 18a3 65bd 1cc7 84bd
00000380: aad3 83bd 000d 833d c2a6 62bd 28a8 053d
00000390: 91c9 df3c c893 1e3d bd6f 82bd f932 a2bd
000003a0: 17bd a23d 1360 163e 843f d5bd 36c6 70bd
000003b0: 72fd b33d 2f21 3a3d 143b 5b3e c916 c53d
000003c0: 8346 2e3d b0d2 4f3d db60 aebd 427a 3cbd
000003d0: 0798 183d ffb7 89bd dae4 87bd ad80 e2bd
000003e0: e709 f73d 821c 19bd cbdc 7ebd 987d 93bd
000003f0: bd10 e0bd 84fc 1ebd 060a 3cbd 372d ddbc
0.036831282 -0.12272476 -0.11028696 -0.08868986 -0.11887475 0.03449687 -0.06719168 0.021181962
0.04597719 -0.032360896 -0.07415679 0.08671957 0.0031720963 0.03125548 0.032322273 0.03619556
0.2881718 0.054502312 -0.07311454 -0.028575841 -0.003983775 -0.054712184 -0.09928751 -0.06462545
0.07300097 0.09463728 -0.06716682 0.03946034 0.059187256 -0.11564109 0.076374285 -0.014174147
-0.033061355 -0.08176583 0.061959647 0.06897046 0.1328246 -0.17411898 0.06316858 -0.03493408
0.10230557 0.14440607 -0.036518693 0.04947164 -0.063948624 0.099105135 -0.037529025 0.06850085
-0.20768712 -0.0020786533 -0.045809925 -0.045639887 0.02771438 0.2911197 -0.04698121 -0.07986582
0.090984024 -0.08184768 0.07316945 -0.09429526 0.072805196 -0.07965898 0.07670327 -0.053228647
-0.04235642 -0.09846628 0.058825918 -0.039847195 0.036622725 0.08099419 -0.056578435 -0.15325911
0.18695647 -0.06473 0.061975632 0.0016722356 -0.047884315 -0.081094645 -0.072246134 0.03105867
0.086121395 -0.0017490268 0.17820573 -0.060640417 0.03228238 -0.14102003 0.05021433 -0.047672488
0.09979611 -0.22841883 -0.09710064 0.09017295 0.02137076 0.22289656 0.07445025 0.039630722
0.20582898 -0.05407504 0.33248034 -0.092183575 0.016829327 0.045819707 -0.12476672 -0.056660168
-0.06994047 0.0542383 0.07347971 -0.11800888 0.05050244 0.060169093 -0.08569534 0.051422115
-0.05268812 0.091185965 0.004166721 -0.0577203 0.18140441 0.20653237 0.108239196 -0.09892407
-0.062176302 0.063847095 0.020755757 -0.08779962 0.065561935 -0.1016098 0.118829325 0.07555748
0.044930886 -0.06170698 -0.08516507 0.10678632 -0.11213568 -0.037868533 -0.06667835 -0.12876354
-0.08365644 0.05173651 -0.13238052 0.050470833 0.044594806 -0.10161379 0.09458517 -0.08050938
0.053667367 -0.05002632 -0.08122101 -0.06987545 -0.04091517 0.062308703 0.041080788 0.029937407
-0.003288858 -0.033478465 -0.057977315 0.13211158 0.054752354 0.019156534 0.103196494 0.18704802
0.060080517 -0.15810207 0.029979775 0.09328636 0.054598328 0.040021215 -0.045846473 0.11378438
-0.05830552 0.07780334 0.045383908 -0.13392614 0.066859074 -0.05452857 0.30106214 -0.06905376
0.07178643 -0.0600717 0.100479156 -0.07014443 0.1077733 -0.016087506 -0.3233856 -0.03629406
0.1870713 -0.04060572 0.07694619 -0.077823415 -0.08727946 -0.078375176 0.025108907 0.03200086
0.035015836 0.014419919 -0.11372385 -0.17626925 -0.006390718 -0.18475735 0.019786675 0.034428895
0.15374637 -0.044016767 0.056657672 0.05275687 0.074006245 0.20863584 0.04482484 0.43673208
-0.0822455 -0.06516469 0.06838299 0.039858226 -0.06483761 0.009137318 0.1161405 0.02608776
-0.10431788 -0.078258015 0.062844396 -0.07611755 -0.10379066 0.04877583 -0.05606374 -0.064832896
-0.06436856 0.06398964 -0.055334814 0.03263107 0.027317794 0.038715154 -0.06368969 -0.079198785
0.07946222 0.14685087 -0.10412505 -0.05878278 0.08788575 0.045441803 0.21409255 0.096234865
0.042547714 0.050738037 -0.085145675 -0.04601503 0.03725436 -0.067245476 -0.06635447 -0.11059699
0.120624356 -0.037380703 -0.062222283 -0.072016895 -0.109406926 -0.038815036 -0.045907997 -0.0269991

fc2.bias f4 [2]
00000000: 6a59 903d 75ad 7a3d
0.070483044 0.061200578
