checkpoint_critic.pth (torch, 425167 bytes, 7 tensors)

fcs1.weight f4 [256, 24]
00000000: 35df 7abd 6406 e33d ac64 c8bc 2a99 5a3c
00000010: 9403 143e 7019 0abe 5ac9 df3c 1768 cebc
00000020: a808 9cbc af84 253e c43a 0ebc 82ef bcbd
00000030: da19 dd3c de8e 063d 5ae3 f838 28af 4b3c
00000040: 4b46 2d3c 0f7b 6e3e 4eb4 6dbb ffff 383a
00000050: d45e 06be 2837 f73e 038f 23ba 5aa9 a73c
00000060: f0d8 cd3c dc50 1f3e 0518 27bd eaa1 b2ba
00000070: 7864 823d 66eb 28be 37f0 373d a88a e2bb
00000080: 4d8b e03d 4367 023e a6de d23c 1b97 a9bd
00000090: 5b1f 833d 4a4d 9dbe 6b74 af3b 75da 3bbe
000000a0: 0334 773d 9f8b 2d3e 3402 17bd 8dd3 423e
000000b0: 6a14 f1bd 2a15 fabd b53d 073c f773 073e
000000c0: bd66 143e 46b8 b5be e196 f43c 7b5e 783d
000000d0: 3464 0abe 667e 443c 3766 55bd 23a0 6b3d
000000e0: fe3a 9f3d 70bd d4be 281d debb 9036 ea3c
000000f0: 625b e9bb 53e0 81be 2768 b839 a852 16bc
00000100: 6ad3 823d 7a96 d9be e93a 4ebd 47b0 f0bb
00000110: 0a83 2c3d 810c 06be 47f8 183d 0f1a 16bc
00000120: c0a5 7a3e 9c73 a73e 5773 21bc 5143 ea3c
00000130: 97ff c73d 19a4 10bf 1875 08bb 5e72 173d
00000140: efc3 ebbb 6697 cebd 835e bbbb 4e96 41bd
00000150: 73a4 19be 4015 b4ba 5f70 0f3d 7d72 6a3c
00000160: 44aa 76bb 8e77 0dbe f273 34bd 06d2 bdbc
00000170: add8 8dbe 4005 443e 7a7b ed3c 62a4 c53a
00000180: 0d12 023d 4cc7 5c3e 90f3 1fba 22e4 1abd
00000190: 05a9 18be c6e8 34be 9a23 4cbc c1a9 e83b
000001a0: 902b 903c 3ce5 c03d 1073 f7bc d657 22bd
000001b0: 837b c63c ab7a 82be 7c06 163d f0db a2bb
000001c0: 9a78 6e3c ee9c b93d a664 593c 24b8 453c
000001d0: 2795 c93d e2ef 09bf 7918 8abc 299e 55bb
000001e0: 116f f0bb 5ac1 29be f549 af3c 3114 0dbe
000001f0: 294f f23d ba87 1c3d 00f7 c0bc 0a78 acbd
00000200: 3878 1f3d 6981 70be 2f87 d93c 1be0 54bd
00000210: 0350 dd3d 061d 9dbe ad54 1ebc fbd0 3fbd
00000220: 4ff3 4b3a 9366 75be 2a53 c2bc c0d6 6abd
00000230: 34f8 08be 912f f4be fa46 51bb 54b1 30bd
00000240: 1472 c53c c356 39be 7577 5e3d d753 403b
00000250: 216f f53c ee06 4ebd d844 05bc 3adf 4e3d
00000260: a59e 0f3d 4481 5fbe 1065 b13b 7c84 073e
00000270: eea2 bbbc 66c2 23be 8118 81bc 42fa d33d
00000280: 5bc2 b03d 44d6 26be aad6 49bd b5aa f1bb
00000290: 572b 163d 8356 0ebf faaf 0ebd 9113 823d
000002a0: 493c 10bd 3d76 4bbe 319b 8f3c 25b1 ccbc
000002b0: 7322 fc3c 65a8 60be 097e 8dbc 0b24 57bd
000002c0: 4e96 4c3d c9f5 02be 56d4 f43b 4508 19bb
000002d0: a0bb e53d ec09 05bf eeb4 75bc f129 56bc
000002e0: f69a 9c3d dc38 8ebd 4e17 12bb 28f2 24bd
000002f0: 8f3a 773d f51f 833e 2df3 6abc 335b d9bd
00000300: 81c4 813d 23b3 fc3c f18f 193b 7670 9abc
00000310: eeca 53be 621a 48bd 334b 2fbc 8ab2 8a3b
00000320: f775 263c 1e18 09be 9bcd 4a3c 40c5 03bc
00000330: b0bb 72bc 4251 343e 4028 99bc 083a 27bd
00000340: 929e 7d3d f627 06be 490e 2f3b f7b1 32be
00000350: 04be 073e a662 083f 6fb7 1dbb e0b3 eabd
00000360: 49ea 3f3d 5220 24bd 9f7f 21bd 1f2a 613c
00000370: 1204 3dbd b969 c63d 24c1 a13c 7123 debc
00000380: dd9b 083e fe75 2dbe 1e28 bb3c 8758 69bc
00000390: 4eb8 0abe 8e12 963d 2bbf 52bc 10ee 01bd
000003a0: 03f1 6e3e 9d58 08be 3277 0c3d 1b2b d03d
000003b0: b44d a6be 7a52 b7bd 7467 c3bc 7d21 c6bb
000003c0: 8e0e 5ebc 6415 b8bb 4aa9 f2bc 3453 c7bc
000003d0: 600b 4d3d bd93 14bd 661f a23c 8ad3 0b3c
000003e0: 8526 923d f35e 8a3d 3deb 99bc 5ce7 3e3d
000003f0: 23cd 1d3d 8454 a4bb 9162 af3b b9af 38bc
-0.061248023 0.11085203 -0.024462067 0.013342181 0.1445449 -0.13486266 0.027317692 -0.025196118
-0.019047096 0.16163896 -0.008681003 -0.0922537 0.026989866 0.032851093 0.00011867909 0.012431897
0.010575841 0.2328913 -0.00362708 0.00070571894 -0.13122112 0.48284268 -0.0006239267 0.020466495
0.025127858 0.15558189 -0.04079439 -0.0013628576 0.06366819 -0.16496047 0.04490682 -0.006913502
0.109640695 0.12734704 0.025740933 -0.08280774 0.06402465 -0.3072303 0.0053544543 -0.18345053
0.060352337 0.16947792 -0.036867335 0.19026013 -0.11771472 -0.12211068 0.008254458 0.13227831
0.14492317 -0.35492152 0.0298571 0.06063698 -0.13514787 0.011993026 -0.052099433 0.057525765
0.07774924 -0.4155078 -0.006778378 0.02859047 -0.0071214894 -0.25366458 0.00035172814 -0.00917498
0.0638798 -0.42497617 -0.05034915 -0.0073452326 0.042117156 -0.13090707 0.03734615 -0.009161486
0.24477291 0.3270539 -0.009854159 0.028596552 0.09765547 -0.56500393 -0.0020821746 0.036974303
-0.007194988 -0.10087471 -0.005718054 -0.047262482 -0.15004139 -0.0013739243 0.035019275 0.014309523
-0.0037638107 -0.13815138 -0.044055887 -0.023171436 -0.27704373 0.19142628 0.028989542 0.0015078897
0.031755496 0.215604 -0.00061016623 -0.03781522 -0.14908226 -0.17666921 -0.01245966 0.0071003144
0.017598897 0.09418723 -0.030206233 -0.039634548 0.024228817 -0.25484213 0.036627278 -0.0049700662
0.014555121 0.09063135 0.013268625 0.012067828 0.09842902 -0.5388166 -0.016857373 -0.0032595492
-0.007337459 -0.16577664 0.02139757 -0.13777234 0.11831505 0.038215376 -0.023555279 -0.08421333
0.03893301 -0.23486866 0.026553718 -0.051971536 0.10806277 -0.30686206 -0.009663743 -0.04683016
0.0007780091 -0.2396491 -0.023721296 -0.057333708 -0.13375932 -0.4769254 -0.0031933174 -0.043137863
0.024102248 -0.18099503 0.05431314 0.0029346847 0.029960217 -0.050299577 -0.008134089 0.050505854
0.035063405 -0.21826655 0.005413659 0.13234133 -0.02290484 -0.15992126 -0.015758755 0.10350467
0.0863082 -0.16292673 -0.049276985 -0.007375086 0.036662426 -0.55600756 -0.034835793 0.06351388
-0.035213742 -0.19869323 0.017530056 -0.024986813 0.030778145 -0.21939237 -0.017272012 -0.052524608
0.04994803 -0.12789072 0.0074716015 -0.0023350876 0.11217427 -0.51968265 -0.01499675 -0.013071523
0.07646744 -0.06944439 -0.0022291723 -0.04027 0.06035858 0.2561032 -0.014340204 -0.10613098
0.06336308 0.030847138 0.0023431743 -0.018852454 -0.2068288 -0.048853286 -0.010699081 0.0042327093
0.010159961 -0.13388106 0.012378122 -0.0080426335 -0.014815256 0.17609122 -0.01869595 -0.040826827
0.061918803 -0.13101181 0.0026711395 -0.174507 0.13256079 0.53275526 -0.0024065634 -0.1146009
0.04685429 -0.040069886 -0.03942835 0.013742953 -0.04614646 0.09688134 0.019745417 -0.02711651
0.13340707 -0.16939542 0.022846278 -0.014242298 -0.13546869 0.07327758 -0.012862961 -0.031721175
0.23334126 -0.13315053 0.03429336 0.10164472 -0.32481158 -0.08951278 -0.023853041 -0.0060464726
-0.013553275 -0.0056177843 -0.029621739 -0.024331667 0.050059676 -0.036273707 0.019790363 0.008534322
0.07136253 0.067563914 -0.018788928 0.04660736 0.03852571 -0.005014958 0.005352326 -0.011272364

fcs1.bias f4 [256]
00000000: c38d b9be f86a 98be cea7 943e a624 23be
00000010: 0daf 78bd a444 22be ef12 87be 96fd 75be
00000020: 6ad1 59bd 10b4 57bd 4fe0 8dbe 6ca8 9dbd
00000030: fe08 49be 9a61 59be a762 b83d 4762 42be
00000040: 1230 70be 3f2f 2a3d 687d 4ebe 7799 62be
00000050: 3a65 d73d 15b1 aabd fee8 97bd 7382 303c
00000060: 118d 65be a7b0 333e 712b 2e3e a0e2 e6be
00000070: e1f6 43be 26ae 893e 8203 40be ff9c 2b3e
00000080: c82b 943e 3e8e 443d 2f87 8b3e 0ee9 1cbe
00000090: 8da5 30be 17ce a6bc 95a9 3a3d db10 e4be
000000a0: de2c 603d 79a9 8abe d920 be3e 4364 8a3c
000000b0: 9350 2cbe b662 05be 3fef d53b b2a1 a1be
000000c0: 3f7a 1dbe 5c8c 60bc fc34 293d 757d b6be
000000d0: 5f84 b6be ca04 4d3e 0dd1 0dbe 55e6 8fbe
000000e0: a882 b9be 8e08 5dbe e03c 8abe 193e 073b
000000f0: fab0 16be 7322 df3d 84a9 46bd 8505 8ebe
00000100: e208 ae3e 662f c83c e9f1 11bd f3db 5ebe
00000110: d381 893d fd06 45bc 4091 a8be 05d5 8dbd
00000120: 0af8 4fbe c090 c03d 59ef 70be b9ec b23e
00000130: 06e6 6ebe 3ec3 6dbe c505 80be 9533 f43e
00000140: 180d 12be e86e d6be e8b4 90be e993 f5be
00000150: 677b 3a3d 34a3 043f 72af 50be 6cb6 6abe
00000160: ab9d 02be 7ba7 5abd 25ed 25be 2e42 d3be
00000170: dbf2 003e 5a9a 9d3d f70a 51be 2c39 6d3e
00000180: d28d b1bb a774 84be cb2f aabe 217b b6be
00000190: 6b22 123d 18cb e83d b0f9 51be 8f57 80bd
000001a0: 018b a9be 232f bbbe f52d a6bd 2388 17bd
000001b0: 7fb8 30bd c7ed 9abe 59d5 78be 3345 3ebe
000001c0: e30c b3be 65b3 8ebd 0244 cdbe 2a2d bc3e
000001d0: 44a6 f1be cb9e 983d e4fd e6b9 486f 68bd
000001e0: 1aec adbe 4eec 413e 3ef0 61be a72b 923d
000001f0: 1bba be3c 2f15 523d 6f81 7abe 99bf 5e3e
00000200: 6d89 593e 18bf 9f3e 84f8 d6bc 3ebc ee3e
00000210: bc03 8abe 19cc 55be 3e36 bebe ef44 0dbe
00000220: eb63 693c 7728 d23d 9b36 e4bd 87fd 863e
00000230: 6ac2 96bd eb91 5abd 853d eabd 57bc 6abd
00000240: 9c81 b53e 2c10 8dbd 53a3 2b3e ebea cd3d
00000250: c223 a43c daf6 e23d 252e 103c d4b3 73be
00000260: 4e4a 32be 8681 68be 6227 43bd 407d f1bd
00000270: cc48 8abe c5d5 39bd fc2d b2be 3157 01bf
00000280: 5504 43be 12e0 60be 59c2 463c ca85 e4bd
00000290: c2cd f53d cbf7 713e 63c6 c4bd d623 b53d
000002a0: 7c0e e0be 4dfe 00bd 0248 a2be f403 35be
000002b0: 2afb 33be 014e 1dbe 750f 5f3e a34d 34be
000002c0: b0e9 553e f1cf a2be 2006 943e 2ab6 b73e
000002d0: 30de c8be 7faf 0bbe 6ffe c1bc 9633 ea3c
000002e0: 9efa 9abe 4635 ffbd 453a 40be 28c5 92be
000002f0: 0f14 913e bc18 113e c49c 6b3d 9748 7ebe
00000300: 15b1 49be 6a20 24be 2977 4f3e 26a1 ddbd
00000310: 0c67 6abe c14d 95be 9744 46bd 1c53 9cbe
00000320: 8f52 dbbb 4b5f 85be 4f90 ebbd 591f 66be
00000330: b508 ddbe 2178 63be 5cd2 31be 9c24 1abe
00000340: 39a3 41be 714f 9b3d 5a09 a3bd 7e2d ae3d
00000350: 6394 523d 74e4 ddbd a9e7 5dbd b9b1 76be
00000360: bf33 42be c3bb c83c bc81 9fbe 7c58 2e3e
00000370: 7a2a 163d 91e3 0bbe ba76 f3be a409 60be
00000380: a627 393d f04b a4be d314 93be a96f b8be
00000390: 3df0 69bc b085 90be 9489 4c3d 0868 3f3e
000003a0: 5503 75bd 3dda 883e 808e 8dbe 32ac 6cbe
000003b0: 0f10 d53e 450e 27be 0591 423d 4820 383d
000003c0: 39b6 02bd 414d 18bf a55f 6dbe 8036 b8bb
000003d0: e8b9 d23d cd1f 56be b4f3 ad3c a061 273e
000003e0: 3288 363e e1e0 ec3d 952f 8abd b5a7 c6be
000003f0: 7c5d 4cbe a7d6 eabd 762f 843e f9b8 243e
-0.36240968 -0.2976911 0.29034275 -0.15931949 -0.060713816 -0.15846497 -0.26381633 -0.24022517
-0.05317823 -0.052661955 -0.27710196 -0.076981395 -0.19632336 -0.21228638 0.090031914 -0.18982802
-0.23455837 0.041548964 -0.20165026 -0.22128855 0.10517354 -0.08334557 -0.074174866 0.010773289
-0.22417094 0.17547856 0.17008759 -0.45094776 -0.19137146 0.26890677 -0.18751338 0.16759108
0.28939652 0.047987215 0.27251574 -0.15323278 -0.17250653 -0.020361943 0.045571882 -0.4454411
0.05473029 -0.27082422 0.37134436 0.016893512 -0.16827612 -0.13025936 0.0065287645 -0.31568676
-0.15378664 -0.013705339 0.041310295 -0.3564259 -0.35647866 0.20021358 -0.13849278 -0.28105417
-0.36232495 -0.21585295 -0.2699957 0.0020636378 -0.14715949 0.108952425 -0.048501506 -0.27738586
0.33991152 0.024436664 -0.035631094 -0.21763591 0.06714215 -0.012025592 -0.32923317 -0.06925396
-0.20309463 0.09402609 -0.23528804 0.3494623 -0.23329934 -0.2321901 -0.25004402 0.47695604
-0.14262807 -0.4188149 -0.2826302 -0.4796441 0.045527842 0.5181153 -0.20379427 -0.22921151
-0.12755458 -0.053382378 -0.16203745 -0.4126143 0.12592642 0.07695456 -0.20414339 0.2316634
-0.0054185176 -0.2587025 -0.33239588 -0.35640815 0.035677355 0.11366862 -0.20505404 -0.062667005
-0.33113864 -0.365594 -0.08114234 -0.036995064 -0.0431447 -0.30259535 -0.24300136 -0.18581085
-0.3497077 -0.069678105 -0.40090948 0.36753207 -0.47197163 0.07452162 -0.00044058182 -0.05674675
-0.33969194 0.189378 -0.22064301 0.07137232 0.023282101 0.051289733 -0.24463437 0.21752776
0.2124383 0.3120048 -0.026241548 0.46627992 -0.26955974 -0.20878638 -0.37150759 -0.13795827
0.014245014 0.10261624 -0.11143228 0.263653 -0.073613 -0.053361814 -0.11437515 -0.05730852
0.35450447 -0.0688785 0.16761522 0.10054573 0.020036582 0.110822394 0.008800064 -0.23799068
-0.17411157 -0.2270566 -0.04764498 -0.11791468 -0.27008665 -0.045369882 -0.34800708 -0.5052367
-0.19044621 -0.21960476 0.012131297 -0.11158331 0.12002136 0.23629682 -0.09608152 0.08844726
-0.4376105 -0.03149252 -0.31695563 -0.17677289 -0.1757628 -0.15361787 0.2178324 -0.17607741
0.20889926 -0.31799272 0.28910923 0.35881168 -0.39232016 -0.13641165 -0.023680894 0.028589051
-0.3026933 -0.12461333 -0.18772228 -0.28666043 0.28335616 0.14169592 0.05752255 -0.24832378
-0.19696458 -0.1602799 0.202603 -0.10821752 -0.22890872 -0.29160884 -0.048405256 -0.30532157
-0.0066931914 -0.26049265 -0.11502134 -0.22472896 -0.43170705 -0.22213794 -0.17365402 -0.15053028
-0.18909921 0.075835116 -0.07960768 0.08504771 0.051411044 -0.108345896 -0.054176006 -0.24091233
-0.18965052 0.024503594 -0.31153667 0.17025942 0.036661603 -0.13661028 -0.4755152 -0.21878678
0.045203827 -0.32089186 -0.28726825 -0.3602269 -0.014278469 -0.28226995 0.049935892 0.18692029
-0.05981763 0.26729003 -0.2764778 -0.23112562 0.41613814 -0.16314037 0.047501583 0.04495266
-0.031912062 -0.5949288 -0.23181017 -0.0056217313 0.10289365 -0.20910569 0.02123437 0.16345835
0.17825392 0.1156633 -0.06747357 -0.38799825 -0.19957536 -0.11466723 0.2581746 0.16086186

fc2.weight f4 [256, 258]
00000000: 0008 043e f107 513c a537 e73c 25e5 023e
00000010: 8430 af3c cedb 8cbd e3ac 16bd 3541 ab3d
00000020: e964 44bc aef6 85bd f250 0e3d 745c 0c3d
00000030: 7552 0d3c fcaf a63b cb8a b7bb 2177 d1bc
00000040: 0b7d d03c f7d3 d23c afa9 13bd afd4 7ebd
00000050: 7ec1 1d3d d748 60bb 4220 063b d259 f93c
00000060: 9f78 1e3d 0414 42bf 6edb 5e3d be68 cb3c
00000070: 4da9 a0bc a3b7 05bd 1157 0e3c 0a21 08bc
00000080: 6efb 3cbd 5584 543c b5c5 bbbc 7c56 a8bd
00000090: 31be 98bc b754 30bb 0f27 90bc c8ce 463e
000000a0: 7ef4 71bb ce03 343d 8646 04be 5235 54bc
000000b0: 267b 9dba 3c66 263d d38d 503c 10dc 7cbd
000000c0: f714 103c 2cdc 5f3d d32f 643d cf1f 5f3c
000000d0: 2749 113d fbc2 793d eb8d 453c 2108 abbc
000000e0: 5424 fa3d cd57 c2bc 3d9e 80bb 053b 653d
000000f0: 123f 883c 377e cebd f375 6fbc 619d 553d
00000100: 24a3 8bbd 692b fc3c 2b14 97bc fd52 5d3c
00000110: 6979 263d df9a d83c 73d1 33bd 839a 8a3c
00000120: f2a7 83bc 6786 863c 97e6 e43c 60ff a6bc
00000130: f86f 62bc 09de fa3b af6b 04bc 1ee8 78bc
00000140: 362f 97bd 2753 b3ba 0327 e23d 28c4 983d
00000150: 9401 d0bb 6d75 07be 50f4 023c 0280 0c3d
00000160: 8941 243d 10c2 933c 1157 e4bb d8bb 883c
00000170: 035d c83d 8840 463d 1e99 11bc 43a1 73bb
00000180: c653 cd3c ee4b 8b3c 6d13 ad3c c98b ab3c
00000190: a4ea 833d 5995 93bc 2693 bfbc f484 903d
000001a0: 5d32 243e 94bf f13c f5a0 0cbd 85fc c73c
000001b0: 008a f4bd a0cc 0fbe 7630 a43c 0aac 20bc
000001c0: 0846 1abb 2278 b4bd 67eb 033d 47b6 cebd
000001d0: f949 df3d c1d5 fdbc 9042 533d e4ac 99bb
000001e0: 0fe1 3fbd e975 2cbd b7e8 16bb d2f5 c3bc
000001f0: c847 09be fd21 8c3c 2dd2 933d 412b 76bc
00000200: e6a7 a63d e889 c13c ae18 3f3c b58a 10bf
00000210: c374 363c c460 a6bd 3c7d 293e dc49 6bbd
00000220: 02ab 173c 5ec8 01be f361 3bbd 7d53 0fbd
00000230: 903d 563d 5dae 723d 7cbd e73c 8230 a0bc
00000240: 6de4 aebd 0e1b 3b3d 6885 2336 6989 c83b
00000250: 679d ff3c 8d2b abbb 1779 9e3b 65da d93c
00000260: 73fb 713d 9bf8 a23c bbc0 a1bd d183 2c3d
00000270: a843 963c a358 58bd 8626 a23c 67c1 763e
00000280: 11cf 69bc f12c fdbb 1527 163b 7198 4c3d
00000290: 1bb2 fdbd ae44 f2bd ffe2 01be 6e54 86bd
000002a0: d034 cb3c 81aa 953b 7452 2cbc 971c 163c
000002b0: ac85 333b b7bf efba 828e 0b3d e814 06bc
000002c0: af08 90bc 3786 913c 81b2 a6bd 5692 ddbd
000002d0: f471 b63c 8a17 163d e116 d839 0ac8 803c
000002e0: 3eec 5d3c d8f1 2d3d 2b9d e6bc 35d1 eaba
000002f0: 2da8 99bc 1004 e43c 3ae0 e63c e03f a3bc
00000300: f6c9 8d3d e615 20be 17fc 28be 5d85 93bd
00000310: 6f9d 2f3c 6b49 b3bb 75a4 883d 9628 2bbc
00000320: 99aa 69ba fc88 0cbd 55d2 8a39 0e96 e2bd
00000330: 7144 65bb 46da 033d 7075 7e3c f003 253d
00000340: 1cb2 833d a54b 0dbd 5cc5 f03a cab0 e53c
00000350: cac0 e93b f305 4abc e171 da3c 2aa9 a93d
00000360: 6f0d 843d 57e0 02bb 1525 31bd 21f5 87bd
00000370: 6ef0 eabc 7f29 bc3c 85a3 863d 8196 89bc
00000380: dd77 243c 63cc 593d 0e22 f53c 5f28 843c
00000390: 27bf c0bb 0e2a 8e3d 3382 8b3c 71d7 b3be
000003a0: 8d1c 783c 1a76 f5bc 55a1 07bd b657 cbbb
000003b0: 6acc a6be 1767 4e3d 1750 0f3d 5006 74bd
000003c0: 2034 3dbe 53df dd3d 38d9 763c bec2 043d
000003d0: b429 73ba 6ba6 0d3d 1d93 213c 4574 1cbb
000003e0: 99cf 543d 5422 b93e 851c 5b3c 4f31 9a3c
000003f0: 495c 173d f00b e1bc 8077 22bd 143c 8f3e
0.12893677 0.012758241 0.028224776 0.12782724 0.021385439 -0.06877862 -0.03678597 0.08362047
-0.0119869495 -0.06541191 0.034745164 0.034267858 0.008625616 0.005086897 -0.005601262 -0.0255695
0.02545025 0.025735838 -0.036050495 -0.06221455 0.038514607 -0.0034223103 0.0020466004 0.030438337
0.038689252 -0.7581179 0.054408483 0.024830218 -0.019611979 -0.032645833 0.00868775 -0.008308658
-0.04613822 0.012971004 -0.022921422 -0.082196206 -0.018645378 -0.0026905963 -0.01759675 0.19414818
-0.003691941 0.04394894 -0.12917528 -0.012952166 -0.001201485 0.040624842 0.012729126 -0.061733305
0.008794061 0.05465333 0.05570967 0.013618424 0.035470154 0.060976963 0.012057762 -0.0208779
0.1221396 -0.023723507 -0.0039251135 0.05596449 0.016631637 -0.10082667 -0.014615524 0.05215204
-0.06818226 0.030782418 -0.018442234 0.0135085555 0.04064313 0.026441036 -0.04390092 0.01691938
-0.016071294 0.01642151 0.027941985 -0.020385444 -0.013820641 0.007655863 -0.008082314 -0.01519206
-0.07382052 -0.0013681398 0.11042597 0.07459289 -0.0063478444 -0.13228388 0.007992819 0.034301765
0.04010156 0.018036872 -0.006968387 0.016691133 0.097833656 0.048401386 -0.008886604 -0.0037174977
0.02506436 0.01700398 0.021127427 0.020940678 0.064412385 -0.01801555 -0.023385596 0.07056609
0.16034837 0.029510297 -0.034333188 0.024412403 -0.11940384 -0.14042902 0.02004264 -0.009806642
-0.0023540277 -0.08811976 0.03220692 -0.100933604 0.10902781 -0.030985715 0.05157715 -0.0046897996
-0.046845492 -0.042104635 -0.0023026892 -0.023920927 -0.13406289 0.01710605 0.07217822 -0.015024961
0.08137493 0.02362533 0.011663599 -0.5646165 0.011136237 -0.08123925 0.1655168 -0.057443485
0.00925708 -0.1267409 -0.04574771 -0.03499173 0.052304804 0.059248317 0.028288595 -0.01955438
-0.085396625 0.0456801 2.4366545e-06 0.006119896 0.031202985 -0.0052236975 0.0048362124 0.026593396
0.05907769 0.019893935 -0.078980885 0.042117897 0.018342808 -0.052818906 0.01979376 0.24097215
-0.01427056 -0.0077263047 0.0022911478 0.049950067 -0.123874865 -0.11829506 -0.12684248 -0.065590724
0.024805456 0.004567445 -0.010517705 0.00916209 0.0027392907 -0.0018291388 0.034071453 -0.008183695
-0.017582266 0.017764194 -0.08139516 -0.10818927 0.022271134 0.036643542 0.00041215777 0.015720386
0.013545094 0.04246697 -0.028151115 -0.0017915132 -0.01875695 0.027833968 0.028183091 -0.019927919
0.069232866 -0.15633354 -0.16502415 -0.072031714 0.010718687 -0.0054713986 0.06671993 -0.010446688
-0.00089136657 -0.034310326 0.0002647812 -0.11063777 -0.0034983421 0.032190584 0.015530929 0.04028696
0.06430456 -0.03449597 0.0018369365 0.028038401 0.007133578 -0.01233052 0.02666563 0.082842186
0.06447875 -0.0019970143 -0.043248255 -0.066385515 -0.028679099 0.022969006 0.065741576 -0.016795399
0.010038343 0.053173434 0.029923465 0.016132532 -0.005882162 0.06941615 0.017029857 -0.35125306
0.015143526 -0.029963542 -0.033112843 -0.0062055243 -0.3257783 0.050391283 0.03498849 -0.059576333
-0.18476915 0.10833611 0.015066437 0.032412283 -0.00092759286 0.034582537 0.009861735 -0.0023873013
0.051955793 0.36159003 0.013373499 0.01882234 0.036953244 -0.027471513 -0.039664745 0.27975523

fc2.bias f4 [256]
00000000: f625 bbbe 8e69 283d 6ee2 b53d 6742 46be
00000010: 84ba 1b3e 0290 0c3d 4164 873e 537f e9bd
00000020: c486 003e 373a afbe f94d 9dbd 7960 c1bc
00000030: e386 243d 0499 963d e8fb b7bd aa7a 43bd
00000040: 7e4e ad3d 642a c2bd 3afa 10be 14d9 3ebd
00000050: 8eec ecbd ef1e 7bbd 308a 2c3e 4b62 17bc
00000060: 713c 803e cb68 52be 52a3 56bd 38df c3be
00000070: 0c35 d53d cf49 8fbd a83c cdbc a80e 373d
00000080: 0073 7a3d 4994 b5bc 5382 cb3d d89b b33d
00000090: fd1b 7dbd 1ab8 e6bd 02e1 05bd 7eb9 093b
000000a0: f138 e3bc fef4 d53c 4f62 57be 9521 b2bc
000000b0: e5fc fdbb 339b 87be 8767 a7bd fbf0 eabd
000000c0: beee ddbc a045 e0bc 3d1e 41bd b87d 9f3c
000000d0: a76b 11bd c55a 07bd 0e5c a5bd 9ba3 deba
000000e0: 2be2 77bd bfda 123e 434b 8dbb b600 bfbd
000000f0: 9b6e 923c 1439 e3bd fcec 06be 9d00 91bb
00000100: e677 433e 54b4 e53d ceec 2bbd 28c4 dfbd
00000110: d588 85bd f046 ca3c b8af 543d 44c8 93bd
00000120: cc67 53be cc0b 3abd 42d7 77bd dfb2 23bd
00000130: ef82 bbbe 93aa febc ec3e cebd 4d45 8a3c
00000140: 6c37 05bc 4e5e d53d 1ca4 643d 475c 02be
00000150: 84b1 89bd e902 263d 4475 2f3d ec78 d9bc
00000160: 523a 03be 7c52 86bd e2ee 07be 6773 f9bd
00000170: 36bd 0d3e 22ad 16be db82 d9bd 084e c5bc
00000180: b6bd cf3d f9e1 783d 7af1 b23c 7ae6 b93d
00000190: 1bb5 df3d dcdc f5bc 7c40 b4bd bb7e adbe
000001a0: 4a72 b0bd afda 24bd d015 71be 629f 0bbd
000001b0: b2ef 24bd 215e eabd c9ce 513e 1d88 8dbd
000001c0: b23b 67bd 4ffa 983b 2a19 783e 6665 cd3a
000001d0: 7ba8 9c3d e8b6 f43d 4a80 d9bc 2f0f d33d
000001e0: b397 0b3d b14b 0f3d 934c 4abe f044 82be
000001f0: 63d3 ce3b 7fb4 56bd 356c 73be 4679 1e3e
00000200: 13c9 64bd 3882 9e3d e232 91be bc21 80bd
00000210: 5f39 34bd e121 7a3d 67a0 f8bd 3a64 76ba
00000220: f592 3cbd a077 243c a693 3abe 4c77 353e
00000230: 197e 71bd c063 ca3c 10d3 dc3d 420d a3be
00000240: 1204 99bd d08a 21bd 58a0 3e3c ff87 403c
00000250: 7bfc 9fbe b04d 7dbd fa91 573d 628c 54be
00000260: 0563 2e3c 037a c73d 869b bf3c edfc 50be
00000270: e58b a3bc bb87 d2bc aad8 f1be 23cb 53bd
00000280: 1004 443d 6acc e0bc 4cd1 313c 02f7 9a3d
00000290: 53d5 b43c 8c3f 00be 6340 37be 5bf1 783d
000002a0: a2d5 f13d 5abc 383d 72b7 8dbd 717a 1f3c
000002b0: 2c96 693d dc45 883d 630c 43be 37fe 18bd
000002c0: 9398 88bd 4595 f3bd c3bf 7ebd 3ed0 afbd
000002d0: 6d26 57be 69f2 1bbe 5b5f 77ba 08ca 6ebd
000002e0: 19b9 113d 0da2 97bd 3fcf ddbd bc8c 22bd
000002f0: 7b16 50be 1936 cc3d 9bd5 0a3e d314 223e
00000300: 786c 26be 3da9 fd3c 0859 09be af3b a6bb
00000310: eea8 01be f93c 9b3d 5623 083d 6002 f0bd
00000320: 4fb1 babc 6142 82bd 9baf c8bc cff7 943d
00000330: c9f8 17bc f3eb 8dbd 0a04 96bc ccd6 5ebe
00000340: 8244 c6bd 17cf 39be d8f3 ddbc febe 47ba
00000350: 52e3 d73c 9c6d 2ebe cbc9 87be 49ec 853b
00000360: 105f 453d 39f3 49be db75 b5be 0759 063c
00000370: 5ca8 2cbe 644b b13e 98f4 aabc 3858 5b39
00000380: e333 943d adbf 38bd 42b2 c7bd 81a5 13be
00000390: 3770 f0bd e283 4e3d 98f2 2f3d 6a8d 01bc
000003a0: df6f 0fbe aeda 1fbe 66ca 5cbe 2054 1cbe
000003b0: e9d2 40bd 9d0e d13c bc59 94be c592 333e
000003c0: 839b 293c bcb3 5ebe 4ff8 f6bd 4a97 20be
000003d0: fe25 013d f142 98bd e22b 36be 859b b13d
000003e0: f320 50bc dbcd 0bbe dc25 ba3b 167f 5bbd
000003f0: 4851 4fbe 2d1b 4e3c bcdb 2ebd e535 c0bd
-0.365524 0.04111629 0.08881079 -0.19361268 0.15207869 0.034317024 0.26443675 -0.11401238
0.12551409 -0.34224102 -0.07680888 -0.023605572 0.0401677 0.07353404 -0.08983594 -0.047724403
0.08462237 -0.094807416 -0.14157954 -0.04659374 -0.11568557 -0.061308797 0.1684959 -0.009239743
0.25046113 -0.20547788 -0.05240185 -0.3825624 0.104105085 -0.069965 -0.025053337 0.04469171
0.06114483 -0.022165434 0.09936967 0.08769959 -0.06179427 -0.11265583 -0.032685287 0.0021015103
-0.027737113 0.026117798 -0.21033596 -0.021744529 -0.0077510946 -0.26485595 -0.08174043 -0.114717446
-0.02709138 -0.02737695 -0.047147978 0.019469127 -0.035503056 -0.03304555 -0.08074199 -0.0016986014
-0.060518425 0.14341258 -0.0043119504 -0.093263075 0.017875006 -0.11094871 -0.1317634 -0.004425122
0.19088706 0.112160355 -0.04197388 -0.10926086 -0.06520239 0.024692029 0.05192539 -0.07215932
-0.20645064 -0.045421407 -0.06050802 -0.039965507 -0.36623332 -0.031087196 -0.10070595 0.016878748
-0.008130889 0.10418378 0.05582057 -0.12730514 -0.067233115 0.04053012 0.042836443 -0.026546918
-0.12815216 -0.065587014 -0.1327472 -0.121802144 0.1384171 -0.14714482 -0.10620662 -0.02408506
0.10143606 0.06076238 0.02184366 0.09077163 0.10923215 -0.03001254 -0.08801362 -0.3388575
-0.08615549 -0.040247615 -0.23543477 -0.034087546 -0.040267654 -0.11443735 0.20489039 -0.06910727
-0.056453414 0.004668511 0.2422835 0.0015670478 0.076493226 0.11948949 -0.02655043 0.103056304
0.03408022 0.034984294 -0.19755773 -0.2544322 0.0063118204 -0.05241823 -0.23771746 0.1547595
-0.05585582 0.07739681 -0.28359133 -0.06256434 -0.044000026 0.061067466 -0.12139969 -0.000939909
-0.046038587 0.010038286 -0.18220386 0.1772129 -0.058958147 0.024705768 0.107824445 -0.31846052
-0.074714795 -0.039439023 0.011634909 0.011751174 -0.31247315 -0.061841667 0.05262945 -0.20756677
0.010643725 0.09740069 0.023389589 -0.20408984 -0.019964168 -0.025699487 -0.47235614 -0.0517074
0.047855437 -0.027441222 0.010853123 0.07566644 0.022074377 -0.12524241 -0.17895655 0.06077705
0.11808325 0.0451015 -0.06919755 0.009733782 0.05702798 0.066539496 -0.19047694 -0.037351813
-0.06669726 -0.11893705 -0.062194597 -0.08584641 -0.21010752 -0.15229191 -0.00094365113 -0.05829814
0.035576914 -0.074039556 -0.10830545 -0.039684996 -0.20321076 0.09971256 0.13558047 0.15828256
-0.16252315 0.030964488 -0.13412869 -0.005073033 -0.12662098 0.07579989 0.033236824 -0.11719203
-0.022789625 -0.06360317 -0.024497798 0.07273828 -0.009275624 -0.06929769 -0.018312473 -0.21761626
-0.096810356 -0.18145405 -0.027093813 -0.00076197076 0.026353512 -0.17034 -0.26521143 0.0040870053
0.04818636 -0.19721688 -0.3544148 0.008199937 -0.16861099 0.3462783 -0.020868585 0.00020918332
0.07236459 -0.04510467 -0.09750797 -0.14418603 -0.11740153 0.050418742 0.042955965 -0.007907251
-0.14007519 -0.15610763 -0.21561584 -0.15266466 -0.04707614 0.025519663 -0.28974712 0.17536457
0.010352018 -0.2174825 -0.1205908 -0.15682712 0.031530373 -0.07434643 -0.17790177 0.08672241
-0.012703168 -0.13652746 0.0056807827 -0.053587995 -0.2024585 0.012579721 -0.042690024 -0.093852796

fc3.weight f4 [128, 256]
00000000: d97a 05bf c331 ddbd 7d03 e3bd 4b9b bfbc
00000010: f9a2 5e3d 3785 523d ab11 913d deea 9bbd
00000020: 1e78 eebb f626 1dbd 1245 fabd 12d2 973d
00000030: b8d2 0e3e d5ee 4a3d 8620 03be 8af6 013c
00000040: 3005 ad3c 17bb 103d 3fe6 373c a745 243e
00000050: 3664 2b3d 7d8d 5c3c 1aab b03c f6f8 183d
00000060: 29bf c63c 0398 b3bd 84f8 913d eeeb 49be
00000070: d859 51bd ca5e 86bc 9e1f 79bd fbaa 153d
00000080: 60d3 a4bd 4658 acbc 4062 1fbd a2c4 c63d
00000090: 54f2 cdbe 87dc 06bd c1d8 debc 0730 90bc
000000a0: c75a deba 5846 3ebd 46f7 15be d919 c0bd
000000b0: f735 93bd 96b9 96bd 4809 3cbd 7e38 463d
000000c0: 5d20 57bd 8f79 053c 6a11 4a3d 2b62 f03b
000000d0: 6131 d13d d36a a33d f3b1 e9bc 335a d63d
000000e0: a1bf b43d cca8 b3bd 1d33 0fbc d50f 96be
000000f0: 5dca 41be 50f2 24bd 4695 b23d 487b 983d
00000100: cd48 0cbe d1f4 60be 7eea bb3d f95a ebbc
00000110: 706b 7c3d ca0e 8fbd 2274 1e3d 22b3 08bd
00000120: f4fa d1bd 5aba 033c 5ef6 88be d58a da3d
00000130: ebd5 55bc c152 a33d 9d7d acbc 8b51 01bd
00000140: 1f9e 073d eb2f 8dbd 1890 03bd 1eb1 5c3c
00000150: 5595 2a3c 8b47 263e c4e0 783e 2ab5 6d3e
00000160: 034b 743d fcbd 8ebc e75b 9f3b a5d6 7d3c
00000170: 05c3 00be df98 b43d 80fd babc 80fb c5bd
00000180: d73d 30be 0a6a dc3d e852 773d a716 803c
00000190: cfc2 41bd d19c fdbc dddd 2fbc 0716 0fbc
000001a0: 09c3 bb3d 07d3 5bbc ea8c 0b3d 5c7f a4bd
000001b0: fe5e c43d 0792 a03d a72b a53d b2c6 db3d
000001c0: b255 02be 2e9e 643d ca2f 9d3d cb3e 973d
000001d0: ed45 12be 5878 ab3d cbf0 13bb ba15 023e
000001e0: 6c98 ac3d c207 dabd 09e2 dbbd ef15 e5bd
000001f0: 8bc1 4ebe 8c44 20be 2272 1abd 7da3 6fbb
00000200: 92ae e83c bd70 ac3c c795 8f3d 8b6b 563c
00000210: d719 92bd acd5 993d d0d2 63be ebf8 493d
00000220: 41f0 f2bd c0b7 f43c 2473 04bd e442 c03d
00000230: 2a1e 8bbe 3354 70be fd37 3cbd f62d acbd
00000240: 455b 35bc b39d 9d3d f7cb 92bd 4a13 0bbe
00000250: 8d80 7ebe 5ff3 0dbc 037e 0d3d be09 0fbe
00000260: 0688 a23b e0bf e7bd 9676 583b fada 683b
00000270: 3d98 703c 289c ef3d b0c8 ff3d 163f 22bc
00000280: 2c08 6cbe 4035 4ebc b290 7ebd ff80 0abd
00000290: 4773 36bd 61d0 8dbd 3387 98bc 7b0f 32bd
000002a0: 384c 0ebd 004f 583e 4ebf 93be 7df2 e73c
000002b0: 9d54 d03c 98e6 733d 217a 8cbe e13b 073d
000002c0: 48e4 54bd 038a 703c 8a7a 213e e09d 86bd
000002d0: 7d59 97bd 0994 c6be 28c2 3f3e 7ab3 e2bd
000002e0: b7cd 2b3d 6b92 933d bca2 903d 2fa6 06be
000002f0: 8578 c3bd 44c3 c13c c005 023d ef82 a73d
00000300: b835 debd 216c 11be e5cc 87bc 4799 2e3d
00000310: c4eb a5bc b7d5 523d 8992 f3bc d740 3ebd
00000320: f9aa 54be d622 853d d514 c93b 0bf9 a6bc
00000330: ccfe 193d 0ae7 9e3d bd7e 2d3e b182 823d
00000340: 75a3 04be b7ab 02be 4aa0 f4bc ff36 9c3d
00000350: 5ad2 2cbd c6a5 afbd 1a13 adbd 30aa cb3d
00000360: 7997 5bbc f029 2fbd 40b1 0e3e 1250 2a3e
00000370: c149 5bbe 1451 1a3e f170 aabc 13ea 7dbe
00000380: c3f2 ed3d 476d 91bc 8427 d63c b590 1e3c
00000390: bf2c f1be 8f1a ac3d 7be6 41bb 6d09 473d
000003a0: f184 ffbd 4ea6 d53d cef5 6a3d 2bf6 8abd
000003b0: 2c6f 2cbd 52e3 8bbd b11f 783c 8560 d53d
000003c0: 2f2d 793d 84b7 c0bd 7896 94bd 1db5 d03d
000003d0: 5bf6 a43d 9f8e 123e 1c06 5dbe 94a6 e4bb
000003e0: cff8 1bbc 6621 393d a9cc 133d c63e 9abb
000003f0: 9ff2 a5be 5320 653d 7c7b 83bb 2ff1 853e
-0.52140576 -0.10800507 -0.1108465 -0.02338948 0.05435464 0.051396575 0.07083448 -0.07613157
-0.0072775027 -0.038367234 -0.12220205 0.074131146 0.1394757 0.049544174 -0.12805375 0.007932315
0.021120638 0.035334673 0.011224329 0.16042195 0.041843615 0.013461468 0.021565963 0.037346803
0.024261074 -0.08769228 0.07127479 -0.19718906 -0.051111072 -0.01640262 -0.060821168 0.036540013
-0.08048129 -0.021038186 -0.038912058 0.097054735 -0.40223944 -0.032925155 -0.027202966 -0.017601026
-0.001696431 -0.046453804 -0.14645109 -0.0937993 -0.07188027 -0.073596165 -0.04590729 0.04839372
-0.0525211 0.008146658 0.049333014 0.0073359213 0.102144964 0.079793595 -0.028527236 0.10466423
0.08825613 -0.0877243 -0.008740214 -0.29308954 -0.18924852 -0.04027015 0.08719878 0.07445389
-0.13699646 -0.2196839 0.09175585 -0.028729903 0.061625898 -0.06985243 0.03868497 -0.03337396
-0.10252944 0.008040035 -0.26750463 0.10671011 -0.01305149 0.079747684 -0.02105599 -0.031571906
0.03310978 -0.06893905 -0.03211984 0.013469962 0.01041158 0.16238229 0.24304491 0.2321364
0.05964185 -0.017424576 0.0048632505 0.01549307 -0.12574394 0.0881822 -0.022825956 -0.096671104
-0.1721109 0.10762413 0.0603818 0.015635801 -0.047304925 -0.030958565 -0.010734049 -0.008733279
0.091680594 -0.013417012 0.034069933 -0.080321044 0.09588431 0.078403525 0.08064967 0.107312575
-0.12728003 0.055814914 0.07675131 0.07385024 -0.14284487 0.08372563 -0.0022573944 0.127036
0.0842751 -0.10646011 -0.10736472 -0.11185824 -0.20191018 -0.15651149 -0.0377065 -0.0036565952
0.028403554 0.021049852 0.0701099 0.013087164 -0.07133835 0.07511458 -0.22248387 0.049309652
-0.11862231 0.029872775 -0.03233637 0.093877584 -0.2717145 -0.2346962 -0.045951832 -0.08407204
-0.011069124 0.07696094 -0.071678095 -0.13581577 -0.24853726 -0.008663981 0.034544002 -0.1396856
0.004960063 -0.11315894 0.0033029667 0.003553091 0.014684734 0.11699706 0.1248945 -0.009902736
-0.23049992 -0.012585938 -0.06214971 -0.033814427 -0.04454353 -0.06924511 -0.018619156 -0.043471795
-0.034740657 0.21123886 -0.2885689 0.02831387 0.025430972 0.059546083 -0.27436927 0.03301609
-0.05197552 0.014681342 0.15769401 -0.06573081 -0.073901154 -0.38784817 0.18726408 -0.11069389
0.04194423 0.072056614 0.07062289 -0.13149332 -0.09544472 0.02365268 0.031743765 0.081792705
-0.1085009 -0.14201404 -0.016577194 0.042626645 -0.020254023 0.051473346 -0.02973296 -0.046448555
-0.20768346 0.06500785 0.0061365166 -0.020382425 0.03759651 0.07758911 0.16942878 0.06372584
-0.12952979 -0.12760817 -0.029861588 0.07627677 -0.042192794 -0.08576541 -0.08450909 0.0994457
-0.013402813 -0.042764604 0.13934803 0.16632107 -0.21414854 0.15069991 -0.020805808 -0.24796323
0.11618569 -0.017752303 0.02614189 0.0096780555 -0.4710445 0.08403503 -0.002958684 0.048592974
-0.124765284 0.10432111 0.057363324 -0.06785234 -0.04209821 -0.06830467 0.015144275 0.104188
0.060834106 -0.09410003 -0.07255262 0.101907946 0.08054801 0.14312218 -0.21584362 -0.0069778655
-0.00951977 0.045197867 0.03608385 -0.00470719 -0.32411668 0.05593903 -0.004012523 0.2616057

fc3.bias f4 [128]
00000000: 4c01 09be 59de 9e3c 6219 7a3e 37ed 253e
00000010: 786c 163b 260e 0e3d 748c 06be bc81 6abe
00000020: 2e27 803d 16ca 8abd bacd debe 7323 5e3d
00000030: 75e1 2ebd 4f51 2f3e 4ee4 d93d 5569 5d3c
00000040: 1d02 d8bd 31f0 91bd 3a26 41be 057d 24bd
00000050: e5ed 87be 8b8c f9bc 1815 8fbd d0fd 2f3d
00000060: cb8e 98be 71c2 eabd 8902 ebbd 2f4a 10be
00000070: acab 803c 0832 e2bc b1a0 fbbd b69a a1bc
00000080: 970a b03d 7f58 5e3e d72e 87bc 378d 8b3b
00000090: d4dc 00bd 88c7 7e3d 4f50 043d df3d 503e
000000a0: 2ee1 7ebe 3200 2ebd 2407 4a3d c446 573d
000000b0: b4c0 debc 0c89 1fbc 38f1 703e 9c9b 2c3d
000000c0: 43d9 183e 15d2 c7bd 5c5f 173d 41f4 873d
000000d0: 1bc7 b43c 0261 733e b2b2 68bd 1929 ef3d
000000e0: f2b3 223d 5e6a d23d d03d cabe 8e8f 9d3e
000000f0: bc99 76be 919e 80bd 7449 cd3d d95c cc3d
00000100: ceea 8e3d 2f36 a6bd 68e6 9c3d 77c5 c23c
00000110: caa5 21bd 378b 9ebe a61b 0cbe f23f d43d
00000120: b91b 253d f3c4 cb3d 0bcd 17bd daa5 cf3d
00000130: 5294 b4bd dc7b 8e3e fa94 093e 4a7b aebb
00000140: 2d76 453d c667 113b 9eb5 2f3d bee6 3b3d
00000150: f437 fa3c ecd6 dcbd 8af6 373e 6a9b 6abe
00000160: 1e20 003e 7bd8 ad3c 9c11 18bd 3493 22be
00000170: e7a1 de3d f215 693e 4a12 eb3c 9526 20be
00000180: 4f49 96bd a50c 433e 42cd 54be c60e a73d
00000190: ff7e 283e cb6c 18be 8124 ac3d e730 3a3e
000001a0: 1ef1 ee3d 940c 3abe 6ca5 a1bc 2631 abbd
000001b0: 5116 30bc 3b55 e8bc bf17 0dbe 58be 823d
000001c0: 0eb9 79be 005a 70bc b893 c93c de99 1fbe
000001d0: dabe 12bb 64bb 6cbe e456 e2bc 2f67 1a3d
000001e0: 5935 04be 5976 3f3d dfb9 b73c 5207 0a3e
000001f0: eeb1 683e 46b0 91bd 6923 883e 58c5 613e
-0.13379401 0.019393133 0.24423745 0.16203772 0.0022952836 0.03468146 -0.13139516 -0.22901052
0.06257473 -0.06776826 -0.43516332 0.054233026 -0.04269548 0.1712086 0.10639249 0.013513883
-0.10547278 -0.07125891 -0.18862239 -0.04015829 -0.26548687 -0.030462524 -0.06986445 0.042966664
-0.29796442 -0.11462868 -0.11475093 -0.14090799 0.01570686 -0.027611747 -0.12286509 -0.019727092
0.0859577 0.21713446 -0.016501827 0.0042587775 -0.031460598 0.062202007 0.03230315 0.20336102
-0.24890587 -0.042480655 0.049323216 0.05255772 -0.027191497 -0.009737264 0.23529518 0.04214059
0.14926629 -0.09756867 0.036956176 0.066383846 0.022067597 0.23767474 -0.056811042 0.11677761
0.03972239 0.10274194 -0.39500284 0.30773586 -0.24082083 -0.06280244 0.10023776 0.09978647
0.06978379 -0.081158035 0.07661134 0.0237758 -0.03946475 -0.30965587 -0.13682422 0.10363759
0.04030964 0.099496745 -0.03706078 0.101390556 -0.08817352 0.27828872 0.13435736 -0.005324756
0.048208404 0.0022187098 0.042897813 0.04587435 0.030544259 -0.107831806 0.17965141 -0.22910848
0.12512252 0.02122139 -0.03712617 -0.15876466 0.10870724 0.22762278 0.028695244 -0.15639718
-0.07338201 0.19047792 -0.20781425 0.08157115 0.16454695 -0.14885251 0.084054 0.18182717
0.11667083 -0.1816886 -0.0197322 -0.08358984 -0.010747508 -0.028360954 -0.1377859 0.063839614
-0.24386999 -0.014669895 0.02460657 -0.1558604 -0.0022391588 -0.23118359 -0.027629323 0.03769606
-0.12910976 0.046743724 0.022427497 0.13479355 0.22724125 -0.071136996 0.26589516 0.22047937

fc4.weight f4 [1, 128]
00000000: 03ed 0abd 8098 bc3c 5fbb 0a3d 9c85 713d
00000010: 2bcb a13c b89b a73c 3282 5c3d fb6b 1abb
00000020: 0aa2 36bd 0106 42bd 05f3 153d f071 553d
00000030: ec47 813c 7714 e43c b673 84bd 4ab0 363d
00000040: 23a0 453d b6fa 6cbc d1bd 7f3c 85b5 b1bc
00000050: 5728 c0bc d3fc 23bd 2d7c 5ebc f5c6 a33c
00000060: cb8f 0fbd f284 62bc 61d3 e7bc 7511 89bc
00000070: d698 1e3d f139 8e3c 6dcc ceba 0a1e 19bd
00000080: d07f 54bd 64ac 333b f217 d13c ac5b 393d
00000090: 0073 823d c2fc 4cbd faca 963c 10be 813d
000000a0: 3f3c 06bd 3146 80bd a568 fcbd bafb fcbc
000000b0: 82fb ebbc 53d7 3e3d 7904 31bd 72ad 2abd
000000c0: 1aa5 b03c 14de 62bb c314 c73d 77a8 6c3d
000000d0: 516c 1e3d 7cbc 373c 60f6 0b3c 6d7e 31bd
000000e0: dca7 de3c 3f75 aa3d 0565 873d 3766 f63c
000000f0: 6594 cfbc d98c d7bd 1ada b33c 54a3 a53d
00000100: 6856 b93c aa69 24bd 435f a03c c83d 423d
00000110: 39de 95bc b79a a1bc 4b3e 8f3c 8f75 cdbc
00000120: 19ef 09bd 5739 1ebd 1981 0d3d e34e 083d
00000130: 917e 90bc 18f0 463d 7428 6e3d 2e2d 31bd
00000140: dce7 4f3c d284 213d 8a9f 1ebd 1c4e 25bd
00000150: 106a aa3d 2bc2 17bb d36e 9b3c c583 33bc
00000160: 51ae bcbc b3b8 a4bc 9e24 083d 8432 04bd
00000170: 03b5 d43c 5319 853d 3da2 eebc 09ab 2ebd
00000180: d28a ea3c 689e cb3c 1863 35bd 8105 3b3d
00000190: 1c92 ca3c 9067 5e3c 8d1f 343d e03a 923c
000001a0: b0fb f03b efcb ddbc b6c6 403d 00b3 8bbc
000001b0: c695 323d 522d 83bd 60c4 59bd 7e1c 0c3d
000001c0: ef9a 88bd e9ef a83d 63bf 1c3d 76dd 54bd
000001d0: 26b6 1dbd d40d bdbc 4846 8ebd b406 87bc
000001e0: 7bb4 94bc 47d1 3cbd e8fc 9c3c 2bf0 c33c
000001f0: cb72 283d 1bd1 90bc c17f 803c d9db afbc
-0.03391744 0.023021936 0.033870097 0.05896531 0.019750198 0.020459995 0.0538351 -0.0023562897
-0.044588126 -0.047369007 0.036608715 0.052110612 0.015781365 0.02784179 -0.064673826 0.044601716
0.04824842 -0.014464071 0.015609221 -0.021693 -0.023456736 -0.040036034 -0.0135794105 0.019992331
-0.03504924 -0.013825642 -0.028299036 -0.016731957 0.038719974 0.017361613 -0.0015777476 -0.037382163
-0.051879704 0.0027415985 0.025524113 0.04525344 0.06369591 -0.050045736 0.018407334 0.0633508
-0.0327723 -0.06263388 -0.12324647 -0.030881751 -0.028806452 0.046592068 -0.043217156 -0.041669317
0.021563102 -0.0034617232 0.09720757 0.057777848 0.038677517 0.011214372 0.008542627 -0.04333346
0.027179651 0.08323144 0.06611065 0.030078037 -0.025339315 -0.105249114 0.021954585 0.08087793
0.02262421 -0.04013983 0.019576674 0.0474222 -0.01829444 -0.019727094 0.017485758 -0.02508047
-0.033675287 -0.038628902 0.034546945 0.033278357 -0.017638477 0.048568815 0.058144048 -0.043255977
0.012689557 0.039433308 -0.038726367 -0.040357694 0.08321011 -0.0023156505 0.018973744 -0.010956709
-0.02303234 -0.020107603 0.033238046 -0.032274738 0.02596522 0.06498971 -0.029130096 -0.04264358
0.028630648 0.024855807 -0.044283956 0.045659546 0.024727874 0.013574496 0.0439754 0.01785034
0.0073542222 -0.027074782 0.047064506 -0.017053127 0.043599866 -0.064051285 -0.053165793 0.03420686
-0.06670176 0.08248884 0.038268458 -0.051969014 -0.03850379 -0.023077883 -0.06946999 -0.016482688
-0.018152466 -0.04609802 0.019163564 0.023918232 0.0411251 -0.017677834 0.015685918 -0.021467136
