checkpoint_actor.pth (torch, 29087 bytes, 4 tensors)

fc1.weight f4 [256, 24]
000000 21 d2 ea bd b1 2b 35 bd 60 ca 27 bd 6d 5a 97 bc
       -0.1146586 -0.04423112 -0.040964484 -0.018475736
000010 a4 f6 5e be 46 f5 6b 3c 47 d2 05 bc 04 24 b9 3d
       -0.21773773 0.014401739 -0.00816781 0.090400726
000020 f5 ea 40 bd f8 25 6c bc c5 10 48 3d 5d 45 bf 3d
       -0.047099072 -0.014413349 0.048844118 0.09339402
000030 97 53 29 be 1f 7e c3 bd 29 05 2c bd 97 ff ca 3d
       -0.16535793 -0.0954554 -0.04199711 0.09912031
000040 9e 7a cb bd 28 55 57 3d 3d 49 3d 3d 31 cb 09 3d
       -0.09935497 0.052571446 0.046212424 0.033641044
000050 2c 5d ed bd 95 f2 90 be d5 cd f3 bc 12 db ab 3c
       -0.11590037 -0.28310075 -0.029761234 0.020978484
000060 31 0c 08 3e df 1a 5f 3c e1 9a 33 3d 0b c4 fa 3d
       0.132859 0.013617246 0.043848876 0.122444235
000070 e8 87 03 3d b3 41 e0 bd 6a b1 97 bb 74 28 ec 3d
       0.032112032 -0.10950031 -0.0046293037 0.11531153
000080 b5 0a 24 3e cb b8 87 bd 4f b7 a6 3d f2 cf fa 3a
       0.1601971 -0.06627043 0.08140432 0.0019135459
000090 f7 7a 24 3d d0 3f 21 bd 25 75 85 3a a3 1c bd bc
       0.04015633 -0.039367497 0.0010182007 -0.023084944
0000a0 2b 6f 80 bb f7 c7 13 be d7 20 ce 3c 9e 8e 84 bd
       -0.0039195023 -0.1443175 0.025162144 -0.064725146
0000b0 48 57 8d bd 3b 97 3a 3e 3d 38 1f 3b f3 0b 24 be
       -0.06901413 0.18221752 0.0024294995 -0.16020183
0000c0 ba 5e 9e 3d 80 84 af 3d e3 c3 c1 bc 34 fd 10 3c
       0.077329114 0.08570194 -0.023652976 0.008849431
0000d0 a7 12 96 3d b9 6c f1 3a 74 27 52 bc 49 95 66 3b
       0.073277764 0.0018419243 -0.012826789 0.0035184196
0000e0 6b c7 c0 bb 25 b5 19 3d 9d 79 e9 3c 60 9e 8c 3d
       -0.0058831475 0.03752627 0.028500373 0.06866145
0000f0 7d fd 39 be e1 9d 51 3d b0 8e 53 bd 40 25 37 bc
       -0.18163104 0.051175956 -0.05164975 -0.011178315
000100 c0 4b b5 bb 2c 7c 0e be 7c 37 71 ba 00 a1 11 bd
       -0.0055327117 -0.13914555 -0.0009201688 -0.035553932
000110 34 e7 4f be 8e 35 9a 3e d5 79 a8 bc 6e 99 93 bd
       -0.2030304 0.30118984 -0.020565907 -0.07206999
000120 b1 f4 0f 3d c3 fd 4b bd 60 4e af 3c 0c aa fc 3b
       0.035145465 -0.049802553 0.021399677 0.007710701
000130 64 77 5a bd 88 97 cc 3d 6c 7c f7 3c 7f dc ea bb
       -0.053336516 0.0998984 0.030210696 -0.0071673985
000140 4c eb 79 3d c9 3d ae bd 91 45 6f 3d 50 ea c2 3d
       0.061015412 -0.08507878 0.058415953 0.09517348
000150 2f 13 c8 bc 9f 7e 4e 3e f1 85 fe bc 66 ae d3 3d
       -0.02442321 0.2016549 -0.031069728 0.10335998
000160 0a 79 8c 3d e3 4a aa bd 50 5a c4 bc 9b 0a 89 bc
       0.06859024 -0.08315065 -0.023968846 -0.01672869
000170 d4 35 ef 3c ad b6 3b 3e 82 e3 8a 3c b5 b4 06 3d
       0.029200472 0.18331404 0.016954187 0.03288718
000180 08 3d d3 3d e4 d5 4a be 19 3a 6d bc 69 31 0a be
       0.10314375 -0.19808155 -0.014479184 -0.13495411
000190 5f 7c e4 bd 8b b5 37 be b2 eb 6a 3c 9d 45 bc bd
       -0.111565344 -0.17940347 0.014338421 -0.09192965
0001a0 0b 8d 0c 3e 2f 8b 06 be 9d 29 36 bc 9e b6 64 bd
       0.13725679 -0.13139032 -0.01111832 -0.05583822
0001b0 52 9e 19 be 6e 81 c2 bd d5 ae f7 ba 65 ef a0 3c
       -0.150018 -0.09497343 -0.0018896708 0.019645402
0001c0 5a 8d 97 3d d1 78 27 be 02 a4 f5 3c 2d ba 95 3d
       0.074000075 -0.16354682 0.029985432 0.07310901
0001d0 15 74 19 be ed e6 99 bc 95 e9 68 bc d0 97 4b 3b
       -0.14985688 -0.018786872 -0.014215847 0.003106583
0001e0 33 62 b3 bc ea a1 d1 3d 76 c1 e0 3b 9a 3c a6 bc
       -0.021897411 0.10235961 0.006859 -0.020292569
0001f0 10 8d 03 be 4d 93 10 3d 99 b8 2e bd 4e c3 f0 3c
       -0.1284678 0.035296727 -0.042656515 0.029390004
000200 4b 7a 19 bd 6e 96 b3 3d 45 e2 f4 39 d0 44 9c 3d
       -0.037470143 0.087689266 0.0004670789 0.076303124
000210 51 37 02 be 38 51 16 3c 33 bc 8a 3b fa f9 18 bb
       -0.12716414 0.0091746375 0.004233861 -0.0023342357
000220 9f 7f c1 bd f0 60 31 bd 9f 33 fc 3b f8 84 df 3c
       -0.0944817 -0.043305337 0.0076965834 0.027285084
000230 1b d3 87 3b e8 19 a8 3d d3 8a 02 3b 8a 52 8f 3d
       0.004145039 0.08208066 0.0019919171 0.06998165
000240 9b 8f 7b 3d eb 15 00 be af f6 81 3c 81 12 0a 3c
       0.06141625 -0.12508361 0.015864698 0.008427263
000250 b3 bd 8e 3c f0 3f de bc 56 3b b1 3c 04 62 95 3d
       0.01742444 -0.027130097 0.021634739 0.072940856
000260 c5 39 dd 3b 66 60 d9 bd d7 30 b5 3b f5 27 6f 3c
       0.0067512714 -0.1061409 0.005529504 0.014596929
000270 4d b5 cc bd 9c bd c5 3d 9b 86 bf 3b 7f 59 07 bd
       -0.09995518 0.09655306 0.0058449036 -0.033044335
000280 eb bf 5b 3c 1e 19 2f bd 15 73 a4 bc 41 72 c9 bc
       0.013412456 -0.042748563 -0.020074407 -0.024590613
000290 ea e6 20 be 1e af 8b 3e d5 f5 ba 3c b3 d8 8d bd
       -0.15713087 0.2728204 0.0228223 -0.06926098
0002a0 68 7a 6f bd 95 90 67 bd be 99 27 3d bf 5e 75 bc
       -0.058466345 -0.05653437 0.040918104 -0.0149762025
0002b0 0c f3 20 bc 15 78 34 bd f2 31 96 bc d0 85 93 3c
       -0.009823572 -0.04405983 -0.018334363 0.018008143
0002c0 6c e9 00 be e7 6b fa bc 00 f9 1e be 1a d4 7f bc
       -0.12589043 -0.03056903 -0.15524673 -0.015614534
0002d0 37 1b 1e 3e 03 e8 5c 3c 4d 7b df bd e6 80 0a bd
       0.15440069 0.01348305 -0.1091219 -0.033814333
0002e0 2f 5b f3 bd 19 ed 13 be bc 87 84 bd 2c 1d 6a 3c
       -0.11882626 -0.14445914 -0.06471202 0.014289182
0002f0 57 ce 62 3e b8 34 5e 3c bf ac 1d bb 78 27 36 bc
       0.22149025 0.013562374 -0.0024059264 -0.0111178085
000300 7f 59 0a bd 35 56 be 3d 37 8c 55 bd 2b d8 45 ba
       -0.033776756 0.092937864 -0.052135672 -0.0007547165
000310 45 2e 40 bd 2b 07 b0 3d fc 0f 81 3c ac 6b be bc
       -0.046919126 0.08595117 0.015754692 -0.023244701
000320 ef 20 41 bd 57 ef db 3d f2 a7 8b 3b b8 39 12 bd
       -0.04715055 0.1073901 0.004261964 -0.035699576
000330 fe 0d dc bd 67 07 61 3c 2e af 10 bd e0 86 e0 3c
       -0.10744856 0.013734675 -0.035323314 0.027408063
000340 e2 23 b4 bd ca 13 eb bc 93 ca b2 bc 15 5e 16 3d
       -0.087959066 -0.02869596 -0.02182511 0.036710817
000350 b7 d3 a1 3c e4 26 c4 3c 4d 91 75 3c d1 65 42 3d
       0.019754274 0.023944326 0.014988256 0.04746038
000360 4d db df bd 1b 96 c2 3c 60 42 1c 3d 7d 77 46 bd
       -0.109305 0.023753216 0.038149238 -0.048453797
000370 bb 2b 00 be fb 06 48 3e 46 1e 31 bd 2d 51 97 3c
       -0.12516682 0.19533913 -0.04324176 0.018471325
000380 59 b0 b0 bd 82 5f 48 3d 28 11 e2 bc 9b 91 8e 3d
       -0.08627386 0.04891921 -0.027596071 0.06961366
000390 bf dd ce bd ee db 1e 3d 54 b1 73 3c ee a0 03 3d
       -0.101008885 0.03878396 0.014873821 0.032135896
0003a0 6a 88 12 bd 28 6f e8 3c 3c 75 7a 3d 12 82 4f 3c
       -0.035774626 0.028373316 0.06114696 0.0126652885
0003b0 0e bf 11 be b4 bd d4 bd 42 3f f3 bc f8 de 8e 3d
       -0.14233038 -0.103877455 -0.02969325 0.06976122
0003c0 7b 01 9e 3c 57 4d 9c 3d 5b 86 8c bc a4 1d e1 3b
       0.019287815 0.07631939 -0.01715391 0.0068699885
0003d0 f6 4f d3 bc 4f 00 04 3e d1 be b0 3c 0d 49 ca bb
       -0.025794964 0.12890743 0.021575363 -0.006173259
0003e0 40 13 82 bd 5e f9 49 bd 49 aa 03 3c dc 5d 51 3d
       -0.06351328 -0.04931008 0.008036205 0.051114902
0003f0 5f b5 34 3c d2 7a d9 3d d1 1f 23 bd 44 58 2a bd
       0.01102957 0.10619129 -0.039825264 -0.041588083

fc1.bias f4 [256]
000000 ec 5f 92 bd 55 da bf bd 8f 8f 56 3d 85 b0 00 3c
       -0.07147202 -0.093678154 0.052383002 0.007854586
000010 fb 87 92 3d 8e ad ef bd 65 ee 27 be 0d 31 d0 3d
       0.071548425 -0.11703025 -0.16399534 0.10165606
000020 da 8e ea 3c 7b d8 56 3d 54 6c bd bd 04 d3 53 3d
       0.02863257 0.052452546 -0.092491776 0.051714912
000030 3a 51 fe bd d3 0d 39 bd 41 e2 48 bb cc 1b 6c bd
       -0.124178365 -0.0451792 -0.0030652436 -0.057643697
000040 b3 9b 80 bd eb 05 f1 3d df 75 d5 bd 02 e4 24 3d
       -0.06279697 0.11768707 -0.10422873 0.040256508
000050 1c 78 dc 3d 83 7e 45 be 05 68 3e 3e 3c 9b 0a 3e
       0.107650965 -0.19286542 0.18594368 0.1353578
000060 70 4f ce bd df 95 4e 3d c5 36 c4 3d f1 c8 05 be
       -0.10073745 0.050435897 0.09580759 -0.13064934
000070 6e 59 7e bc 00 5c f1 3d 81 4e 92 3e e6 fe 4b 3d
       -0.015524251 0.11785126 0.2857552 0.049803637
000080 96 18 5c 3e d9 db c8 3d 79 c1 c0 3d 46 ed fc bd
       0.21493754 0.098075576 0.09411902 -0.12349944
000090 b8 5f cc 3d 98 65 08 bd bf f0 26 3e 48 fb 6c bd
       0.099791944 -0.033300012 0.16302775 -0.057856828
0000a0 4d 29 8a 3e 87 ed cd bd 32 2a 47 3d 99 93 8c 3d
       0.26984635 -0.1005507 0.048624225 0.068640895
0000b0 66 cf 9a bb 27 2b 5f bd 5a ed c0 bd b0 2e 0c be
       -0.004724431 -0.054484513 -0.09420271 -0.13689685
0000c0 bd a0 b6 bd 7d d5 6e bd 99 2a 24 3e cc 88 ac bd
       -0.08917377 -0.058309067 0.16031875 -0.084245294
0000d0 08 fb c5 bd 97 4f 88 3e 38 a5 b3 3d 10 b8 fd bd
       -0.09667021 0.26623222 0.08771747 -0.12388623
0000e0 e5 4a 82 bd a4 6a 87 3d a9 fd 23 bd 51 a9 38 3e
       -0.06361941 0.06612137 -0.04003683 0.18033339
0000f0 1b 41 00 3d 60 c6 f9 3d 22 63 17 3e fc 8e f4 bc
       0.03131209 0.1219604 0.1478391 -0.029853337
000100 9f 97 89 3e 23 59 0a 3e f5 73 d1 3d e2 54 0c 3d
       0.2687349 0.13510565 0.10227195 0.034260638
000110 72 a6 5f 3d bf ee 47 3e 32 71 80 bd 71 4f 02 3e
       0.054602094 0.19524668 -0.0627159 0.12725617
000120 56 e0 96 3d 38 2a 91 3e 10 56 54 bb a1 7f 7d 3e
       0.073670074 0.28352523 -0.003239993 0.24755718
000130 73 6f d2 bd ac a1 35 be 6c 84 77 bd a5 bc 25 3e
       -0.102751635 -0.17737454 -0.06042902 0.16185243
000140 ab e4 98 3d 64 8c 43 be c4 f9 8f bd 09 3b 0a be
       0.0746549 -0.19096524 -0.07030061 -0.13499083
000150 d1 4f 49 3e 2f 61 58 3e 05 f9 a8 3c 0c b4 b9 3c
       0.19659354 0.21130823 0.020626554 0.02266886
000160 62 97 78 bc e3 24 23 3d 98 c0 5e bd af 77 57 bd
       -0.015172811 0.0398301 -0.05438289 -0.052604374
000170 a8 1b 0a 3e 20 66 ab 3d 15 7a 38 3d 35 f3 95 3d
       0.13487113 0.08369088 0.0450383 0.07321779
000180 5a 3b ba 3b c8 85 43 be ac 27 52 be 38 e7 49 bd
       0.005683345 -0.19094002 -0.20522946 -0.049292773
000190 b1 d4 95 3c 78 23 4e 3e 35 79 ab bc 20 14 cd 3d
       0.018289896 0.20130718 -0.02093182 0.10013604
0001a0 07 52 63 bd 0f 25 19 3d ee 5b 0e 3e 54 26 45 3d
       -0.05549815 0.037388857 0.13902256 0.048132256
0001b0 54 4d 38 bd b4 52 3a be 5c b3 9a bd 09 e7 3a 3d
       -0.04499562 -0.18195611 -0.07553741 0.04563049
0001c0 9e 7c 57 be ad e2 a0 bd 7e 59 47 be fd 0a 8e 3e
       -0.21043631 -0.07855735 -0.19467732 0.27742758
0001d0 7f 52 43 bd f9 7f 98 3e a2 1a 58 be 32 88 02 3d
       -0.047686096 0.29785135 -0.2110391 0.031868167
0001e0 09 23 75 be 31 cb 8b 3d f9 d0 2d 3e c2 a8 09 3d
       -0.23939146 0.06825865 0.16974248 0.033608206
0001f0 e4 9b 52 bd 01 7c 22 bc 09 4d 42 3e 8b 72 2d 3e
       -0.0514182 -0.00991726 0.18974699 0.16938226
000200 be 63 7c 3e e8 7d 73 3e d9 67 62 3e 08 41 dd 3d
       0.24647424 0.23778498 0.22109927 0.10803419
000210 aa bb 71 be e1 15 5a 3d 41 33 10 be 71 f4 83 bd
       -0.23606744 0.05324352 -0.14082052 -0.06443108
000220 30 e1 68 3e 3a b1 47 3d 58 f9 0b be 34 eb d4 3d
       0.22742152 0.048753 -0.13669336 0.10396424
000230 4d e6 a4 3d b7 dd cf 3d c9 0f c3 3d 66 41 1f 3d
       0.08051739 0.101497106 0.09524495 0.03888073
000240 3d 12 61 3d 57 da 23 3e 26 29 42 3e 51 8c ad 3d
       0.054949034 0.16001259 0.1896101 0.08474029
000250 d8 32 3d bd 4f df 06 3e aa 97 9a 3e 3b 22 1f bd
       -0.046191067 0.13171123 0.30193835 -0.038851004
000260 43 2f 05 3e 78 34 0e be 3a b2 63 3d 7e 1b 0a bd
       0.1300631 -0.13887203 0.055589892 -0.033717625
000270 74 f4 28 be 65 65 fb 3c d8 d5 0e be 7a 25 cb bd
       -0.16499501 0.030687997 -0.13948762 -0.099192575
000280 c2 1b 22 be 2d 60 77 bd 8e 90 3f 3e d0 e1 85 bd
       -0.15830901 -0.060394455 0.18707487 -0.06537211
000290 7b da 06 3e d0 2f 75 3e f8 b2 66 bd e1 ea 82 3e
       0.13169281 0.2394402 -0.05632302 0.25569823
0002a0 9c dd f7 bd fd 6a 49 3e e0 c1 9d bd c4 93 9b bd
       -0.121028155 0.19669719 -0.07702994 -0.075965434
0002b0 64 7c c5 3c 5d 73 05 be 62 2e 8b 3d 9e 42 8b bb
       0.024107166 -0.13032289 0.06795956 -0.0042498847
0002c0 f8 a3 45 3e 20 2a bb bd 16 be 37 3e 94 73 0b 3e
       0.1930083 -0.09138894 0.17943606 0.13618308
0002d0 41 50 9f bd e5 bf 12 3e e9 d3 98 3e 60 e2 36 bc
       -0.07778979 0.14331014 0.29849175 -0.01116237
0002e0 64 7b 2a be e2 28 8a bd 0d aa 2d be 82 81 3f bd
       -0.16648632 -0.06746079 -0.169594 -0.046754368
0002f0 97 c2 4b 3e d0 4a 02 3e 50 2f be 3c 35 04 93 bd
       0.19898449 0.12723851 0.02321592 -0.07178537
000300 96 b4 b1 bd be 24 a1 3d 42 cd 1c 3e 1b 33 10 be
       -0.08677022 0.07868336 0.15312675 -0.14081995
000310 7a 25 0b be 1b b2 3d be cd 06 57 3e 62 35 75 bd
       -0.13588515 -0.18524973 0.20998688 -0.059865363
000320 44 e3 3a 3d 6f 31 9d bd 60 8a 98 3b 43 b1 c9 bd
       0.045626894 -0.07675444 0.0046551675 -0.09848263
000330 b2 a4 83 bd 79 fa 32 3e f3 e2 15 bd 8a bb 3d 3d
       -0.064278975 0.1747836 -0.03659339 0.04632143
000340 7c a1 10 bd 81 68 e8 bc 95 df 32 3d ef 0a 53 3d
       -0.035310254 -0.028370144 0.043670256 0.0515241
000350 b0 ec 8e bc 45 28 80 bc d1 33 9b bd 25 10 a9 bd
       -0.017446846 -0.015644202 -0.075782426 -0.082550324
000360 4e b9 4e bd 0f 27 24 3e ec 8b 2c bd 6c fb 52 3e
       -0.05046969 0.16030525 -0.042125627 0.20603722
000370 6b 2b 08 3e 7a 47 26 3e c9 75 1c be d4 62 76 bd
       0.13297813 0.16238204 -0.15279306 -0.060152844
000380 25 81 05 bd 7c f6 10 be 4f 96 27 be ad 18 7c 3d
       -0.032593865 -0.14156526 -0.16365932 0.06154697
000390 8a dc 1e 3d 71 2b c1 bd d5 31 36 3e 36 12 3a be
       0.03878454 -0.09432114 0.17792447 -0.1817101
0003a0 e9 df 2c be 57 9d f4 3d ba 5c 33 be 63 1d 29 be
       -0.1688229 0.11944073 -0.17515841 -0.16515116
0003b0 17 4f 0a 3e 3f 60 de bd 6f 08 0a 3e 6f cb 6b 3e
       0.13506733 -0.10858201 0.1347978 0.23026823
0003c0 ea 65 3f 3d 71 5d 0f be 80 88 7d 3b fd 13 9e bd
       0.046728052 -0.14000489 0.0038686097 -0.07718656
0003d0 bb 68 d4 3d c1 b9 0b 3a 96 ef 08 3e 97 0a 63 3e
       0.10371538 0.00053301087 0.13372645 0.22172008
0003e0 f6 f6 46 3e a0 84 54 3d 0f 19 18 3e 7c 40 71 bd
       0.19430146 0.051884294 0.14853309 -0.058899388
0003f0 be 0a 00 be 64 bb e5 3d ef 13 14 bc 16 8c 86 3e
       -0.12504098 0.112173826 -0.009037956 0.26278752

fc2.weight f4 [2, 256]
000000 7e fc 8a 3d b4 2e 56 bd e2 e8 75 bd 8d 3e 32 bc
       0.0678644 -0.052290633 -0.060036547 -0.010879171
000010 e1 e1 38 be be 5c 3c 3c f6 2a ba bd f7 90 9b 3d
       -0.18054916 0.011496721 -0.090902254 0.07596009
000020 b2 69 82 3c 2c 13 14 3d bb 8f 20 3c 22 2b 1a 3d
       0.01591954 0.036151096 0.009799893 0.03763879
000030 35 94 4b bd fc 2a 9e 3c d8 d7 3d be 05 e4 05 3d
       -0.049701888 0.019307606 -0.18539369 0.03268816
000040 9e 46 3c be ff 78 c0 bc 5f 58 29 bd b4 b5 8c 3d
       -0.18386313 -0.023495195 -0.041344043 0.068705946
000050 a3 5b 2f bd e9 a6 04 be 7c 66 9b bd fa 37 3c be
       -0.042812 -0.12954296 -0.07587907 -0.18380728
000060 ea d5 a4 bc e9 d6 ff bd 5f f3 24 bd de ae 81 bd
       -0.020121533 -0.12492163 -0.04027116 -0.063321814
000070 58 e1 7e 3d cf 73 83 bd 06 dd 31 3d 26 f2 56 bd
       0.062226623 -0.06418573 0.043423675 -0.052477024
000080 c3 21 09 3c d3 21 65 be bd b1 84 3c aa c7 83 bc
       0.008369866 -0.22376184 0.016198033 -0.016086418
000090 ca 7c 25 3d 54 4e 39 be 95 1c 2c bb 0d 68 e3 3c
       0.04040221 -0.18096286 -0.0026262153 0.027759576
0000a0 8e b4 c9 3d 7a 28 1a 3d a4 22 fd 3c ba 12 53 3d
       0.09848891 0.037636258 0.030900307 0.05153153
0000b0 63 db 85 bc f1 2c 1d 3d 40 b8 86 3d fd ae a2 bd
       -0.016339963 0.038372938 0.06578112 -0.079435326
0000c0 59 16 5e be bc b8 3f bd e6 62 e9 bd c4 30 c6 3c
       -0.21688212 -0.046807036 -0.113958165 0.024193175
0000d0 e4 78 a2 bb 1c aa 77 bd dc 5e 79 3d a2 77 f2 bd
       -0.004958259 -0.060464963 0.06088148 -0.118392244
0000e0 9e ab 18 be 47 44 99 bc 7c b1 02 3c 4f 19 4e bd
       -0.14909217 -0.018709315 0.007976886 -0.050317105
0000f0 b3 e1 4c 3d 76 9b 38 3c 46 b6 2b 3c 80 a6 6f bd
       0.05001993 0.0112675335 0.010480469 -0.058508396
000100 50 0d c7 3c 6f 96 02 be e9 87 52 3c 86 ef b7 bd
       0.02429834 -0.12752698 0.012849786 -0.08981232
000110 38 f9 51 3d e9 6c b9 3c 64 59 6b 3b 89 03 f4 3c
       0.051263064 0.02263494 0.0035911435 0.029786842
000120 31 c7 45 3d 3b 67 12 bc 05 38 d5 3c 39 c2 1d 3c
       0.048285667 -0.008935745 0.026027689 0.009628826
000130 2d 94 5e 3c b3 8d 5b 3d ab 73 40 be 4d 4f 0a be
       0.013585133 0.05360193 -0.18794124 -0.13506813
000140 3a 7b 03 3d ac 73 7a 3c 1f 4a 85 3d 6c 20 bf bd
       0.03209994 0.015286367 0.06508278 -0.09332356
000150 e9 ed 09 3d 40 4a 64 bd 03 61 f1 3c fc d6 b5 bc
       0.033674154 -0.055734873 0.029465204 -0.02219724
000160 55 97 9a 3c 5b eb b0 bd 14 03 97 3d 5a 5e 25 3d
       0.018870989 -0.086386405 0.07373634 0.040373184
000170 7e b7 49 bd 39 92 fb 3c 52 59 88 3b fb a9 ee bc
       -0.049247257 0.030709373 0.0041610384 -0.029133787
000180 3f 31 9f bc 3d c6 15 be a4 44 3a 3d fe b0 2c be
       -0.019432662 -0.14626403 0.045475617 -0.16864392
000190 b8 bb a1 bd 3b 53 3f bc 33 fb ae bd bf fd 74 bd
       -0.07897133 -0.0116775585 -0.08544006 -0.059812304
0001a0 9c 36 3b bd f7 1c 58 3d 24 0b 71 3d 99 b8 84 bd
       -0.045706376 0.052761998 0.058848515 -0.06480522
0001b0 01 69 a1 bb f1 f6 0c bd f8 3a 98 bd 64 8a f9 bc
       -0.0049258475 -0.03441519 -0.074331224 -0.030461498
0001c0 a7 e1 10 bd 74 14 b4 bc c4 95 05 be 4d e4 c8 bd
       -0.03537145 -0.021982409 -0.13045412 -0.0980917
0001d0 87 3f 43 3d 80 52 87 3d 6f 2e 20 3d c3 9c 0e be
       0.047668006 0.066075325 0.039106783 -0.13926987
0001e0 b6 2d 8b 3d 3c df c0 bd 95 60 4e 3d db 1c 15 bd
       0.06795828 -0.094175786 0.050385077 -0.03640447
0001f0 7e 05 9a bd ee 04 95 bd e3 9a c9 3d c4 e9 fa bd
       -0.07520579 -0.07276331 0.098439954 -0.122516185
000200 fc 02 78 b9 3e be 0d 3d 2e 8b d2 bd 60 33 16 be
       -0.00023652235 0.034605257 -0.10280453 -0.14668036
000210 41 e8 b6 bc 93 ac 23 3d 38 a1 11 bb 40 1a a5 bc
       -0.022327544 0.0399595 -0.0022221338 -0.020154119
000220 a1 59 c2 bd ef ba ba bb 3f 60 03 be ed 7f fa 3c
       -0.094897516 -0.0056985538 -0.12829684 0.030578578
000230 3a 90 6d 3c 0e 38 52 bd 1c 09 6f bd 6c da f7 3c
       0.014499718 -0.05132299 -0.058358297 0.030255519
000240 9d d7 50 be 3d 26 02 3c 83 8f 05 bd a9 2e d6 bb
       -0.2039475 0.007943687 -0.032607567 -0.006536324
000250 02 6f 0e bd ef b5 45 bd 8c 73 0f 3d 0a 9b 9f 3d
       -0.034773834 -0.04826921 0.035022303 0.07793243
000260 f5 8e b8 bc 11 7f 27 3d a4 4b ad bd 58 58 01 bd
       -0.022529105 0.040892664 -0.08461693 -0.03157839
000270 d6 5d ed bd ec 53 c6 3d a2 72 a2 3c 81 b4 b0 bd
       -0.115901634 0.096839756 0.019830052 -0.086281784
000280 2c ba 01 bd 5f 25 2a bd 35 9a a8 3c 5b a9 3b bd
       -0.031671688 -0.041539546 0.020581344 -0.045815807
000290 13 b3 b2 bc ae e5 4e 3d 14 3a ca bd ab e7 ab 3d
       -0.021813905 0.05051201 -0.09874359 0.083937965
0002a0 0a 5a f4 bd c0 42 cf bd 47 ca de 3c c4 36 42 be
       -0.11931236 -0.101201534 0.027196063 -0.18966204
0002b0 2c 9c d6 bd 6a 0f fb bb 48 46 d9 bd 97 cb 52 3d
       -0.10479006 -0.0076617496 -0.10609108 0.05146369
0002c0 5f 63 ad 3c e9 73 8d 3c b3 ad 28 3d 4a b1 6e bd
       0.021165548 0.017267184 0.041181277 -0.058274545
0002d0 62 8f 67 3d c9 ba c0 3a 2c 19 bd 3d b2 02 3f bd
       0.056533225 0.0014704104 0.09233317 -0.04663343
0002e0 2b 45 46 be e9 14 d8 bd 4b 8a ab 3c 8b 5c f9 bd
       -0.19362323 -0.10550863 0.020939967 -0.12175854
0002f0 72 da d4 3c 5c 10 66 3b a6 fe 88 bc 8f 8e 5b 3c
       0.02598307 0.0035104966 -0.016722988 0.013400688
000300 98 c7 6d bd bf 49 ab bd 42 d5 80 bd 04 39 9e bc
       -0.058051676 -0.08363675 -0.06290676 -0.019314297
000310 47 51 ef bd f9 17 88 3d d2 65 e0 3c c4 82 cd 3d
       -0.11685424 0.066451974 0.027392302 0.10034707
000320 4b 01 0a bd 9d ed 5e be 05 b6 12 3d 54 4b 80 3d
       -0.03369264 -0.2177033 0.03581812 0.06264368
000330 dd bd c3 3c 6a 3a 4a 3d 68 e8 52 3d aa 3d cf 3c
       0.023894245 0.049372114 0.05149117 0.025297958
000340 4d c5 b9 bc c0 7e 46 bd 1f 63 0d 3d 9f 6b 11 3d
       -0.022677088 -0.048460722 0.034518357 0.035503026
000350 92 f1 e1 bc b8 58 6b 3c 53 5a 29 be b6 0c 15 3d
       -0.02758101 0.014364414 -0.16538362 0.036389075
000360 89 b9 85 bb 13 4c 58 be 8b e2 c0 3c 0e db 01 bd
       -0.0040809554 -0.2112277 0.023545524 -0.031703047
000370 07 09 5c 3c b1 6b 25 3d 3f b0 be bd f7 ad 95 bc
       0.013429887 0.040385906 -0.0931096 -0.01827143
000380 67 ac b0 bd ef b5 c0 bd 9b 8a 1a bd f4 01 be 3d
       -0.08626633 -0.09409701 -0.03772984 0.09277716
000390 12 9a 05 3d 7e ce f4 3c 59 1a 52 be 3f e0 82 3d
       0.032617636 0.02988362 -0.20517863 0.06390428
0003a0 44 b9 27 ba 93 22 90 bc 91 82 03 be e0 59 fe 3c
       -0.0006398151 -0.017594611 -0.12842776 0.031048715
0003b0 d5 33 11 be fb e4 bd bc 4e 07 0a be 5f a1 bd bb
       -0.14179929 -0.023180475 -0.13479349 -0.005787059
0003c0 0b be c6 3d b2 6a f2 3c 6b ce 1e be ce bb 11 3d
       0.097042166 0.029591892 -0.1550843 0.035579495
0003d0 06 cb bf bd 09 6d d3 bd b7 bf dc bd c6 57 0e be
       -0.093648955 -0.10323531 -0.10778754 -0.1390067
0003e0 53 31 a7 3d 07 27 43 bd 46 10 b6 bd 7f 38 cc bd
       0.08163705 -0.04764464 -0.08889823 -0.09971713
0003f0 29 c6 9d bd fc b1 b8 bd d3 1f 17 3d 8d a0 b7 bd
       -0.07703812 -0.09018323 0.036895584 -0.089661695

fc2.bias f4 [2]
000000 45 73 9a 3d c9 a6 0c bd
       0.07541517 -0.034338746
