checkpoint_critic.pth (torch, 425167 bytes, 7 tensors)

fcs1.weight f4 [256, 24]
00000000: a615 a0bd 67e5 0ebc 5e4c f5bc 0cf0 663c
00000010: 78a6 a93d 82f4 65be 10e2 b23c 3c3d c8bc
00000020: a063 94bc 388a d43c 3ab0 2fbc 894c 0abd
00000030: 6ef9 26bd 578d 39bc be16 fcba 753e 913d
00000040: ce34 9e3c 9494 eb3d 4be7 b9bb 2546 31bc
00000050: c614 71bd 9c9a cc3e c8fe 2ebb e57c 123c
00000060: caa6 653c 71c9 8d3c 8607 41bd a0f0 1ab7
00000070: 0424 5c3e 0885 8ebd d800 1e3d eb2b b6bb
00000080: 5c5b 533d c0de bc3c b322 603c cacd 2a3d
00000090: 2bfc 443d ca48 613b fcbf dbbb de6e 71bd
000000a0: 097a 20bd 9140 273e 520a b3bc 0829 113e
000000b0: cdb7 6ebe 7607 1e3e a298 be3c 5092 ab3d
000000c0: c4cd f73d 869d fd3c cd31 1c3d db1c bebc
000000d0: 9e5d 3fbd 8a43 1dbe 947f 33bd 2799 d7bc
000000e0: 3f6b 5f3d 7ede 63bd fd2b d5bc 8b77 d03c
000000f0: 4a27 493d 710c acbd 5dc3 9abc d4d2 49bc
00000100: 705a 283d b0f2 afbd 65d6 0cbd 657a adbc
00000110: 0d7f 523e 642a 62be 9f5c 5a3d 5b5b bcbc
00000120: 077b 74bd 5b59 05bd bd5b f9bb 6e6b a6bc
00000130: ac1f 443d d51f 36bd 6107 2a39 6c95 43bc
00000140: 510f b9bd 9fe8 50bd 2d81 d1bc 622a 90bd
00000150: e3fb 093e 83ab 8ebf 906d 783c 018a 10bc
00000160: 0bdf 87bd 443d 1b3d 7d7e efbc c053 3d3c
00000170: eaff cf3b b8c3 cf3d e372 333d 6c6b 143d
00000180: bb53 033b e0aa bf3e 0c7f 0cbb 744d 31bd
00000190: 8c6f bbbc 7e8d 5f3e 9344 65bc c46a d53a
000001a0: 2be2 3e3c 2ff4 6e3e d1a7 dbbc 3403 8ebd
000001b0: ebc2 823d efc4 953d 9bec 233d 9409 0ebd
000001c0: bc9f 933d 1180 323e 14a8 9e3c 68d7 63bd
000001d0: 3fa0 bdbb 97ec acbe f944 30bc cd4f 91bd
000001e0: 44a1 33bb 3e0b bcbc 0923 74bc fddc a5bd
000001f0: bc00 003e ba2b 6c3b 442a 75bd d0b3 e0bc
00000200: fce6 5f3c 6c2a 43bc dbff bcb9 121b 813c
00000210: 1ea4 0f3e 07d0 9bbe a5d2 15bd 7839 ab3c
00000220: 474b 14bd 4c3a 673d c8cb 87bd f03e 4abd
00000230: da43 15be fa7e 84be 7d82 3bbd c619 10bd
00000240: 2845 893b 081a ce3b 874a 263d 52d1 82bb
00000250: 3fc2 723c 09d6 8e3e ebfb b2bc d57f 323d
00000260: 72ad af3c f09f 75bd f279 763c e834 523d
00000270: a4f9 1dbd 1828 a93d 19d4 c8bb 5d30 b83c
00000280: 7ab7 a43d a5da 6f3d 67b2 d9bb 8a3c c43d
00000290: 7407 0abd 7504 babe 1b85 ff3b 3bb5 2a3e
000002a0: de4f febc c160 c5bd 45f2 c13b f7dd a43c
000002b0: c654 4e3d 9645 22be 8f9c ecbc e5e5 f2bb
000002c0: c87f a63d 4b5c 0ebd cf07 13bc 5139 2d3d
000002d0: 75f3 1f3d b213 5cbe 79c9 00bd 293f 013d
000002e0: eba2 cf3d cdf5 f0bb 8394 04bc 3f8c 113c
000002f0: 3e5b 033b 906b 583e c680 a5bc 1c61 69bd
00000300: 3731 ab3c 837c 163d 0ab3 863b 4c01 c8bc
00000310: 3afd d5bc f2bb a5be 4654 12bc 1c44 aeba
00000320: 04c0 3fbb 5c5b bbbd 24f3 063c 62d6 773b
00000330: 252a a73d fb62 cbbd ca14 bbbc 5796 edbc
00000340: b020 3a3d 61a1 7bbd d1ff 533b 8383 0dbe
00000350: bdc2 563e 5a39 b73e 8e86 f1ba df55 a0bd
00000360: a95e f83d 9ea4 463e 6d32 2abd 26cb 94bc
00000370: a9a6 b8bd 3c0d 0b3d 8159 903c abc1 71bd
00000380: fef0 283e 1ab1 8c3d 35a2 843b b631 9cbd
00000390: c64d 38bd 64fa 2b3e 83af 01bd 9cfd bfbd
000003a0: eb9e 393e 72ed ea3d 1dbd 083d 6af9 9fbd
000003b0: 91e0 e2bc f54f 8f3e 82da cabc c443 3ebe
000003c0: bd73 8f3c ef00 7a3e d1ae 00bd bd56 d33a
000003d0: c742 f53d ed58 bc3d a669 933c 6b39 0d3d
000003e0: 2d30 e13d 29d4 923e 7c37 b1bc b28d 29bd
000003f0: efe7 b63d e455 5d3c 2962 243b f24f cbbd
-0.07816629 -0.008721686 -0.029943641 0.014095318 0.082837045 -0.22456554 0.02183631 -0.024443261
-0.018113911 0.025944814 -0.010723168 -0.033764396 -0.04076522 -0.011325202 -0.0019232852 0.07091991
0.019312289 0.115029484 -0.005673324 -0.010819946 -0.0588577 0.39961708 -0.0026702154 0.00894091
0.014016816 0.017307969 -0.047126316 -9.23514e-06 0.21498114 -0.069589674 0.038575023 -0.0055594346
0.0516008 0.023055434 0.013680148 0.041700162 0.04809205 0.003437566 -0.006706236 -0.05894362
-0.03917888 0.16333224 -0.021855507 0.14175808 -0.23312302 0.15432534 0.02326614 0.08377516
0.120997936 0.030958902 0.03813343 -0.023207119 -0.04672014 -0.15357795 -0.04382284 -0.026318146
0.054545637 -0.055632107 -0.026021952 0.025447628 0.049109735 -0.084008105 -0.018891985 -0.012318332
0.041101873 -0.08591211 -0.03438415 -0.021176526 0.20556279 -0.22086483 0.053310987 -0.02299278
-0.05968764 -0.03255592 -0.007609813 -0.020314898 0.047881767 -0.04446395 0.00016215212 -0.01193748
-0.090361245 -0.051003095 -0.025574291 -0.07039334 0.13474993 -1.1146091 0.0151628405 -0.008821965
-0.06634339 0.037900224 -0.029235119 0.011555612 0.006347646 0.10144752 0.043810736 0.036235258
0.002003892 0.37435055 -0.002143803 -0.043286756 -0.022880338 0.21831319 -0.0139934 0.0016282429
0.011650602 0.23335336 -0.02681342 -0.06934205 0.06384834 0.07312953 0.040020566 -0.034677103
0.07208201 0.17431666 0.019367255 -0.05562535 -0.005786925 -0.33774254 -0.010758632 -0.07095299
-0.0027409354 -0.02295458 -0.014900931 -0.08098791 0.1250028 0.0036036805 -0.05985476 -0.027429491
0.013665911 -0.01191197 -0.00036048781 0.015759978 0.1402745 -0.3043215 -0.03657784 0.020901427
-0.036204603 0.05645208 -0.06630665 -0.049376428 -0.14576665 -0.25878125 -0.04577874 -0.03518083
0.0041891523 0.0062897243 0.04059842 -0.003992238 0.01481682 0.2789767 -0.02184864 0.04357894
0.02144501 -0.05996698 0.015043722 0.051319987 -0.038568154 0.082596004 -0.0061287996 0.022483999
0.08042808 0.058558125 -0.0066435817 0.095818594 -0.033698514 -0.36331525 0.00779785 0.16670696
-0.031043943 -0.09637595 0.0059187734 0.020125372 0.050373815 -0.15846857 -0.028883247 -0.0074126595
0.08129841 -0.034755986 -0.00897403 0.04229099 0.039050538 -0.21491888 -0.03144214 0.031554375
0.10138496 -0.0073535205 -0.008092049 0.008883535 0.0020043398 0.21134782 -0.020203006 -0.056977376
0.02089749 0.036739837 0.0041106986 -0.02441468 -0.026121724 -0.32369953 -0.008931225 -0.0013295445
-0.0029258737 -0.09148285 0.00823668 0.003781699 0.08162335 -0.099309884 -0.022837061 -0.029002352
0.04544133 -0.0614332 0.0032348523 -0.13819699 0.20972724 0.35785943 -0.0018426941 -0.078288786
0.1212743 0.19398734 -0.041551996 -0.018163275 -0.09016163 0.03394817 0.017620804 -0.059022587
0.16498181 0.06869717 0.004047657 -0.07626669 -0.044996046 0.16794735 -0.03166152 -0.09374544
0.18127029 0.1147107 0.033383477 -0.07811244 -0.027694972 0.2799069 -0.024762396 -0.18580538
0.017511243 0.24414419 -0.031416718 0.0016123872 0.119756274 0.09196649 0.017994713 0.034478586
0.10995517 0.2867749 -0.021632902 -0.041394897 0.089309566 0.013509247 0.0025082922 -0.09927358

fcs1.bias f4 [256]
00000000: 6e23 94be 05f9 2abe 43cd ba3d 01f2 8b3d
00000010: e156 083e 4961 3dbe f055 f8bd e6b7 08be
00000020: 79c5 09bd e9c1 5ebe 562e 2cbe bc80 a13d
00000030: b92e 34be 1d58 5ebe b5b3 383d ca6a 2bbe
00000040: 43ab 80be ceb9 82bc 21ba 25be 116b fcbd
00000050: 6f06 1c3c 3419 6cbe 2346 1c3e 4aa4 043e
00000060: 36c1 2abe 5a5d 60bd 70ac 153e 7d03 5bbe
00000070: 60f3 c9bd a81d 373d 3082 53bd 0cbc 913d
00000080: dce4 af3e 7369 fe3d f13f 883e 715e 73be
00000090: 8920 dabd a44b 7abd c58e 263e 1fc0 7dbe
000000a0: a253 97bc a4b7 11be 2306 8a3e d8ad 98bd
000000b0: 19e0 8abd 642d 72bd 6bf5 24be 0382 1bbe
000000c0: 8aa4 34be 710c 473b 3e96 a2bc 0e7a 53be
000000d0: 45b4 14be 547b b53d 4765 9fbc 59fe 35be
000000e0: cdab 44be f996 d8bd ff38 8cbd 51ed 523d
000000f0: 3e09 fbbd 3e98 0f3e b95c 3a3d aee1 25be
00000100: 1e28 423e 2206 063e b0bf 93bd 5e3f 5b3d
00000110: f2c0 69bd 8105 103d e744 8bbe f225 053d
00000120: 373b 19be f4b9 143e 25b7 243c d999 603e
00000130: 86f5 59be 6a54 30be b94f 89be 7feb 793e
00000140: d84e 3fbd b8ff 84be 139c 96be dc1b 7dbe
00000150: 2da9 2e3d 1746 043e 5552 2cbe 36c9 22be
00000160: 4540 f3bd bb29 b4bc f755 6abd a2e9 8dbe
00000170: 985a 273d 39c0 f5bc 03a7 cdbc 4a7e 163e
00000180: bb42 b2bc 6238 64be 66cf dfbd 26ef 4ebe
00000190: 9fdd ddbd 3c84 033e 120a d4bc efee 84bc
000001a0: 9ca2 2cbe 9754 47be 430b 443e dc6a 86bd
000001b0: 6fc1 c6bd 4ebd 55be 5e94 89be 5bec 85be
000001c0: 6f36 5cbe 8fa9 38be 983f a7be fa72 6d3e
000001d0: 92d1 abbe 21cd 3b3e ea49 48be 1636 1fbd
000001e0: 6c89 27bd 3319 643e 9633 52bd 74a0 6a3d
000001f0: 1fa1 383e bee8 3ebd 4a9b a4bd 8cb5 593e
00000200: a151 433e 9ec9 9d3e 7ea9 2a3d 81b6 8f3e
00000210: eec0 a6be a7ad a0bd 5b03 bdbd 71b1 22be
00000220: 6d3e 473e ffc3 593b d16d 15be f75f 0e3c
00000230: 932b 02be c0be 5fbe b4a4 5cbd 73f8 e13d
00000240: 3b11 793d a1ef 513d 440f a83d f0fe 5a3e
00000250: 96ee 2eba 5bf8 183e 92a7 573e d223 56be
00000260: 7261 57bd 6655 5ebd d0b3 f63c ba77 88bd
00000270: 8b9c 92be 1b07 33bd 4fd9 b7be 69aa 6dbe
00000280: a42a 92be 67ef 28be 0857 ef3c 2d2f 13bc
00000290: bd61 993e 50d6 ad3c 1695 ffbd de1d 3b3e
000002a0: 67e5 26be 6c00 b3bc 6164 6ebe aa3e 71bd
000002b0: ef78 97be 9139 863c cfd6 b13d ee37 7fbe
000002c0: 4069 553e c125 6dbe 013b 863d 404f 9c3e
000002d0: 5f64 49be 9103 d9bc 43a8 263e 4caa 833c
000002e0: af29 95be 63e1 033e 085d 7bbe f309 ccbd
000002f0: 3103 aa3d 18e9 213e 631f 573e e65f 1cbe
00000300: 54ba 01be 02ba 1fbd f378 9e3e d3ce 48be
00000310: fe13 12be 7139 31be 0ff5 8a3c 23ad 86be
00000320: 9e6c 7e3d ee0c 44be a631 f4bd 296b cabe
00000330: 54c4 8cbe c99e d2bd ef92 46bd 71ed 57bb
00000340: e711 b4be a28a ac3c 2ac7 97bd c99a c73b
00000350: cb10 213d 5cc4 34be 707d c3bc 4873 2abe
00000360: 02cb 0dbe fab4 f13d 5476 40be 9744 4a3c
00000370: bff6 9f3e bd68 ccbd 5f50 86be 0575 7ebe
00000380: 0e97 48bc cccd 19be 50b5 ccbe 0e27 60be
00000390: bd98 0cbd b899 60bd c071 7d3e 9d73 5dbe
000003a0: c534 d3bd e7e9 7f3e 688b 75be 2783 c2be
000003b0: 07ce a5bc 276d 0cbe 89eb 0e3d ce1a 0e3d
000003c0: 7af9 07be a3af a9be 80c6 0dbd 9af3 97bd
000003d0: 84fa 27be d83e 90be 8bd3 003e 8c49 d93e
000003e0: cd15 093e c38f ae3d 1e32 643d dbcc 82be
000003f0: 0214 1bbe 9dea 2c3e eebc a7bc d4aa aa3e
-0.2893328 -0.16696556 0.09121182 0.06833268 0.13314392 -0.18494143 -0.12125766 -0.13351402
-0.03363559 -0.21753658 -0.16814551 0.07885882 -0.17595948 -0.217133 0.045093257 -0.16739956
-0.25130662 -0.01595774 -0.16184284 -0.12325109 0.009523018 -0.23056489 0.1526113 0.12953296
-0.16675267 -0.054776527 0.14616561 -0.2138805 -0.09860873 0.044706017 -0.05163783 0.07115945
0.34354293 0.124224566 0.26611283 -0.23766495 -0.10650737 -0.061107293 0.162654 -0.2478032
-0.018472496 -0.1423021 0.26957807 -0.07455033 -0.067810245 -0.05912532 -0.16109245 -0.15186314
-0.17640892 0.0030372406 -0.019847032 -0.20652029 -0.14521892 0.088614136 -0.019457472 -0.17772807
-0.19206162 -0.10575671 -0.06846809 0.051495854 -0.12257622 0.1402292 0.045498583 -0.16199371
0.18960616 0.13088277 -0.07214296 0.05352723 -0.057068773 0.0351615 -0.27201006 0.03250689
-0.14963995 0.1452406 0.010053431 0.21933688 -0.21285066 -0.17219701 -0.26818636 0.24406241
-0.04670605 -0.25976348 -0.2941595 -0.24717659 0.042641807 0.12917362 -0.16828282 -0.15897068
-0.11877493 -0.021992555 -0.05721089 -0.2771731 0.04085788 -0.029998885 -0.025104051 0.14696613
-0.021760335 -0.22287133 -0.1092823 -0.20208415 -0.108332865 0.12843412 -0.025883708 -0.016227214
-0.16858906 -0.19465862 0.19144921 -0.065633506 -0.09704863 -0.20872995 -0.26871008 -0.26156887
-0.2150514 -0.18033431 -0.32665706 0.23188391 -0.33558327 0.18339969 -0.19559446 -0.03886994
-0.04090254 0.22275238 -0.051318727 0.057281926 0.18030213 -0.04660868 -0.080374315 0.21260661
0.19074108 0.30817884 0.041665547 0.28068927 -0.3256907 -0.078456216 -0.09229156 -0.15888001
0.19457407 0.0033228395 -0.14592673 0.008689872 -0.12711935 -0.21850109 -0.05386801 0.11033716
0.060807448 0.05125392 0.08206037 0.21386313 -0.00066731253 0.1493849 0.21060017 -0.20912102
-0.052583165 -0.05428066 0.030115038 -0.06663461 -0.28635058 -0.04370795 -0.3590798 -0.23209538
-0.28548157 -0.16497575 0.029216304 -0.008983416 0.2995738 0.021220356 -0.12479608 0.18273112
-0.16298448 -0.021850787 -0.23280479 -0.05889765 -0.29584453 0.016384872 0.086835496 -0.24923679
0.20840931 -0.23158933 0.06554223 0.30529213 -0.19667195 -0.026490958 0.16275124 0.016072415
-0.29133365 0.12878947 -0.24547207 -0.09962835 0.0830139 0.15811574 0.21008067 -0.15270957
-0.12668735 -0.03899575 0.30951652 -0.19610147 -0.14265439 -0.17307068 0.016962556 -0.26303968
0.062115304 -0.19145557 -0.11923532 -0.39534882 -0.27493536 -0.10284192 -0.04847997 -0.0032947923
-0.35169908 0.021062199 -0.074110344 0.00609145 0.039322656 -0.1765303 -0.023863524 -0.16645539
-0.13846973 0.11802097 -0.18795139 0.012345455 0.3124294 -0.09980915 -0.26233193 -0.24849327
-0.0122430455 -0.15019912 -0.3998208 -0.21889898 -0.03432535 -0.054834098 0.24750423 -0.21626134
-0.10312799 0.2499157 -0.2397896 -0.37990686 -0.020239843 -0.13713513 0.034892593 0.03469353
-0.13278762 -0.33141813 -0.034613132 -0.0741951 -0.16404158 -0.28172946 0.12580697 0.42438924
0.13387223 0.08523514 0.055711858 -0.25546917 -0.15144351 0.16886373 -0.02047583 0.33333457

fc2.weight f4 [256, 258]
00000000: 1d3b c7bc e719 933c cb4c 91bd 35e7 963e
00000010: 960b c8ba fe28 df3d 6f9d cdbb 6255 1fbc
00000020: 31e8 153d c5f9 69bd 5a77 ea3c 4920 9d3d
00000030: f6cc 833d 631c 233d 5845 2a3d 6ae7 b2bc
00000040: 859d ab3c fe0c c1bd 4ee9 6d3d f605 a23d
00000050: d8c8 8c3d 6b73 eebc 6a8e a9bd 7d18 253d
00000060: bd12 a73d eefb 5bbd 2317 4e3d e235 d5bd
00000070: cf28 1cbe 8be2 2e3d 002f e9bd 2592 713d
00000080: 2408 91bd 7077 533a 1551 463d 95f8 983d
00000090: fda8 be3d e782 a33d 45fe 51bd 729e 4b3d
000000a0: 7e2a 943d fc74 ae3c f053 e2bc 7feb e63c
000000b0: 951e 2dbb f68a 843d 03e1 6ebd 1e81 043c
000000c0: fd75 753c b72a c3bd 0638 41bc 642e 38bd
000000d0: 609c 1fbd 2bfc d6bd 66e0 4d3d 7a17 85bd
000000e0: db70 a1bc 8387 a03d 3fa7 77bd 2280 93bc
000000f0: 1221 bd3c c250 da3d f5cd a9bd 8916 c93b
00000100: e2f1 be3d 3a31 7e3d 1291 903d e30a c73c
00000110: 7908 c6bd e545 ba3d 2b11 1dbd 2f75 323c
00000120: 2eee efbd 3e5d fb3d 8e90 123e 79e5 1f3d
00000130: 7b46 e33b dfba ec3d 31f4 ce3c ad22 c63c
00000140: 303b 053d 1941 d23c b82a ac3c 70df b03b
00000150: 4e13 923d 865d 8ebc e0d5 773d 5b59 c6bb
00000160: db8b d1bb 5fbc 03bd f9fa a03d 0296 87bc
00000170: 2ead 673c 7b95 b13d 66f6 d3bd 6030 ccbc
00000180: c2fe 273d 9843 0e3d 9a06 753d 5650 7bbd
00000190: a8c8 44bd b2fa 793d 6b97 23bd 46e8 99bd
000001a0: ec5f 0c3d d204 6dbb 0388 2e3e fbcd abbc
000001b0: 3223 e93b 1699 5cbd 7776 533d a55d 41bc
000001c0: ec84 a0bc 88ee 943d e9f0 fcbc 8c89 6dbd
000001d0: a9eb c0bd 33a9 2fbd 1528 013b 16a3 b7bd
000001e0: af00 1b3d 33a9 bf3c 32be 803d 93ed 49bd
000001f0: 4b39 5abe 08f9 e13c d326 c3bc b119 87bd
00000200: 86be f63d e9b7 433d 80a5 b6bc 1e15 75be
00000210: fe6c 0e3d 5877 e83c b506 0e3e fe9b 18bd
00000220: 22b6 a13d d963 1b3c 12a0 bdbd 4101 12bd
00000230: 55d0 8b3c b8d2 ae3d 925c 793d c51f fabd
00000240: a82a f63c 37d4 8fbc f711 9d3c b73d c53c
00000250: 7f70 adbd 220b f83c 490d 833d 87a5 d73d
00000260: 2625 d83d 3e3d ddbc 9ad3 5f3d 4e70 753c
00000270: 00f3 a83d 827f cc3d 57e6 e9bd 445c c2bd
00000280: 08d2 5f3d 979b b93d 8805 863d 7a1c eb3d
00000290: 10ce 783c 5a64 afbd 13e0 56be 96b8 193c
000002a0: e773 9fbb b105 0c3c d737 a43c 009d 47be
000002b0: 2811 10bc 4068 d7bd 37a1 b1bd 0750 dcbd
000002c0: efc8 b3bc 3e4c 8e3d 494f 02bc ec3a 84bb
000002d0: ff57 67bd c005 a93d e7a9 603c 0c6c 923d
000002e0: cc34 8b3c 9b19 5cbc c8d0 79bd 517c b2bd
000002f0: 5d7b 38bc 183a 2e3d 12ee 01be 92a8 b83c
00000300: 63db 15be e7f9 663d 395f cc3c 85f9 24be
00000310: c8eb 883d a1ff 71bd 5743 dd3c 6cfa 95bc
00000320: 1fa5 9fbd 5a49 71bc 6ef5 db3c 6d20 583c
00000330: 8b18 12bc e400 5bbd 843f bebd 1345 993c
00000340: c776 253d d9f3 2d3c 3f86 803b a8a2 a4bb
00000350: edac 973b ac10 5d3d d0cd 683d 070d 2fbc
00000360: 9b12 293d 8ee4 1a3d cb50 babd bc6f 20bd
00000370: d710 b7bd 653c 23bd c7c3 69bd cf92 3ebe
00000380: 5f6d 7dbd 53ca 7bbd f254 74bd e37e 053e
00000390: ad50 6fbd 6e46 61bd 0ba6 443c 2f25 a73c
000003a0: 4def 533b ada9 b83c 29cc 1fbc a900 79bd
000003b0: eb3b 61bd ba7b 783d 0c87 8fbd 4aa8 93bc
000003c0: 08f4 773d 73dc ce3d e11f 34bc 06b7 9b3c
000003d0: 2811 59bb 2400 143c b96f acbd 833e a1bd
000003e0: 5964 03bd f704 163d 8c10 853d a9d5 6e3d
000003f0: f60e 46bd ddc2 6a3d 3ffb 0a3d 463c f13c
-0.02432018 0.017956687 -0.07094725 0.29473272 -0.0015262242 0.108964905 -0.006274871 -0.009724947
0.036598388 -0.057122964 0.028621364 0.076721735 0.064355776 0.039821994 0.041570038 -0.021838862
0.020949135 -0.09426306 0.058083825 0.07911293 0.068742454 -0.02910777 -0.082791165 0.040306557
0.08157871 -0.053707056 0.050315034 -0.10410668 -0.15249942 0.042696517 -0.11385918 0.058977265
-0.07081631 0.0008066809 0.04841717 0.07469288 0.09309576 0.07983952 -0.05126788 0.049711652
0.07234667 0.021296017 -0.027627915 0.028188465 -0.0026415933 0.06471817 -0.058320057 0.008087425
0.014981744 -0.095296316 -0.011793142 -0.044966117 -0.03896749 -0.10497316 0.05026283 -0.064986184
-0.019707134 0.07838347 -0.060462233 -0.018005434 0.023087058 0.106599346 -0.08291236 0.0061367196
0.09323479 0.062058665 0.0705892 0.024297183 -0.09669585 0.090953626 -0.03834645 0.010892197
-0.11715351 0.12273644 0.14312956 0.0390372 0.006935892 0.1155908 0.025262924 0.024186457
0.03252715 0.025665807 0.021016464 0.0053977296 0.07132588 -0.01737858 0.0605067 -0.0060531325
-0.006394846 -0.032162067 0.07860369 -0.016551021 0.01414041 0.08671089 -0.10349731 -0.02492541
0.04101444 0.03473243 0.05982075 -0.06135591 -0.048042923 0.061030097 -0.039939325 -0.07515006
0.034271166 -0.0036166203 0.17044072 -0.020972243 0.0071147913 -0.05385693 0.05162665 -0.011802112
-0.019594632 0.07272059 -0.030876594 -0.057992503 -0.094199486 -0.04288597 0.0019707729 -0.08966653
0.03784245 0.02339611 0.06286277 -0.049298834 -0.21310918 0.027584568 -0.023822224 -0.06596697
0.12048058 0.047782812 -0.022295713 -0.23933837 0.03477191 0.02837722 0.13869746 -0.03725814
0.07896067 0.009484255 -0.092590466 -0.035645727 0.017067114 0.08536285 0.060879298 -0.12213091
0.030049637 -0.017557247 0.019173605 0.02407728 -0.084687226 0.030278746 0.06399018 0.10529619
0.105539605 -0.027006742 0.05464516 0.014980389 0.082494736 0.09985258 -0.11420887 -0.094902545
0.05464366 0.090628795 0.06544024 0.11480041 0.015185848 -0.085640624 -0.20983915 0.009382388
-0.0048661116 0.008546279 0.020046158 -0.19493484 -0.008793153 -0.10517931 -0.086733274 -0.107574515
-0.021946399 0.06948136 -0.007953473 -0.0040353443 -0.056480404 0.0825305 0.013712383 0.071495146
0.016992949 -0.013433839 -0.060990125 -0.08715118 -0.011259881 0.04253587 -0.12688473 0.022541318
-0.1463447 0.05639067 0.02494775 -0.16110809 0.06685597 -0.059081677 0.02700965 -0.018307887
-0.07795166 -0.014726961 0.026850428 0.013191325 -0.008916984 -0.053467646 -0.092894584 0.018709695
0.040396478 0.01061722 0.0039222534 -0.005024273 0.0046287687 0.053970978 0.056836903 -0.010684258
0.04127751 0.037815623 -0.09097441 -0.03916906 -0.08938759 -0.03985252 -0.057071473 -0.1861069
-0.061871883 -0.06147225 -0.059651323 0.13036685 -0.058426548 -0.054998808 0.012002478 0.020403473
0.003233868 0.022541845 -0.009753265 -0.060791645 -0.054988783 0.06066487 -0.0700818 -0.018024582
0.06053546 0.10100641 -0.010993929 0.01900817 -0.0033121798 0.009033237 -0.08419747 -0.07873251
-0.03207812 0.03662583 0.06497297 0.05830923 -0.04835411 0.057314742 0.033931013 0.029447686

fc2.bias f4 [256]
00000000: 50bf eebc eeb8 1cbd 6fd1 523d 6ddb 163e
00000010: 6173 e6bd 30f5 043d c5d0 843d 1352 2cbd
00000020: 77a1 833c ad3f a7bc 56fd 523d 6320 1c3c
00000030: 6de7 4cbe cac1 dfbc 6244 98bd 1f8e e2bd
00000040: 5d3b 903d 5d90 a0bd 4b11 883c 2a31 09bd
00000050: ebdc 72bd 022c e2bd 97d2 b2bc 0bc3 c6bd
00000060: f1ec 59bc 02d2 19be 68ff 0dbd 598e 61be
00000070: 74e9 0ebe d39d 8ebc 4aa5 23be ae83 59bd
00000080: 4dd2 003c c607 1b3b e3de 28be af17 08be
00000090: 056d 2abd 24bb a2bd c8dd 1cbe 030e 283c
000000a0: b86b 64bc b009 e13c e5f2 cdbb b724 ae3d
000000b0: 6c76 5fbd 2fe9 e83b de43 e33a 26b5 293c
000000c0: c6cf f2bd dbde 25be 9670 a23c 29ee fc3d
000000d0: 227c 90bd 4fa3 19be 5f62 8abc da81 ccbc
000000e0: dbeb d8bd 45e5 7d3d ecc6 703c d17f 5b3d
000000f0: a8ad 84bd 0050 e3bc 53b3 51bd 3712 a83d
00000100: 6e8e e43d 449f 243d 2c14 7cbd 106b 33bd
00000110: 9ebf f7bd efad 613d 1d57 98bd fe3e d7bd
00000120: a345 04be dc7c a6bc 0961 5abe dcb3 0dbd
00000130: c1a7 79bd 6dad d13c 5a0f 60be 8579 9ebd
00000140: 9ab5 213c cb40 f4bd da05 12bd c4b1 57be
00000150: 116d 05bd 9bc6 83be 7d0d 4cbd 6e3b 083d
00000160: 48ae 603d df8b 51bd f04d 1a3c 3fe6 f4bc
00000170: cead d03d 0564 853b 127f 0fbd 55d4 a4bc
00000180: 591e d4bd 802b f5bd 2d2e d23c c9c2 5c3d
00000190: 8158 e5bd 4bd4 58be 1e13 c4bd caaa 0bbd
000001a0: 70e7 5fbe 0528 9fbd f99f 9bbe 7eac ccbc
000001b0: 276d 98bd 8e5a e8bc e025 9d3d 974a 97bc
000001c0: bb92 78bc fd7a 9c3d 7dbd 1c3d f484 c8bd
000001d0: 9d27 0dbe a6ce d33d ce27 873d b0d6 11bd
000001e0: fb32 91bd ddb2 6fbc 18cd 1bbd 2e93 efbc
000001f0: c59a 02be 31c4 2b3d 2d79 2abc afab 43bd
00000200: e234 bdbd 206f b3bd 092b 42be 4106 c93c
00000210: 43d2 09be fd3b 0d3e b97b b6bd 90b4 a3bd
00000220: 7db8 35bd 392e a13c 023c 0ebd bdb0 8e3d
00000230: e7dc ecbd 2ef2 1b3d fd0e 07bd 320a fdbd
00000240: c3e5 0bbe c2dc e8bc 8294 c43d 0c8f 1e3d
00000250: b892 1fbc 9d3c 9f3d 1e9b 213c 3d20 86be
00000260: c68e 383d 83fe c7bd 6979 c73d 693e adbd
00000270: 36b3 ac3d 79f4 7f3d f428 cdbe 6268 3cbe
00000280: fb8f 643d 0477 c43d 1cd7 a1bc 8e08 8bbc
00000290: 00cc 383d 1f67 bebc a1d1 bc3d ed08 303e
000002a0: 3906 dbbd 06f8 32bc 5456 35bc 442e ecbd
000002b0: de43 d83c 5ad1 47bd 6da4 82bd e62f dbbd
000002c0: f68f 463d 9f7f 08be 0800 b9bd 15fe 37be
000002d0: e42e aa3c 7306 b2bd dc9f 0cbd f03f c03d
000002e0: 8e55 70bb d258 1abe afa5 1fbd 94ea 37be
000002f0: 4da4 c1bd 0bf9 533d 9ede 5bbc 1d42 62bd
00000300: 9a2f b53c 202a 5bbd fd58 6fbd df34 1ebd
00000310: e108 14bd 1a5e 0abe ad59 403d 30b0 49be
00000320: 6d38 b0bd 2c89 30bc ae5d bcbd 8b98 563d
00000330: aca4 5ebd 1eec b6bd 483c fabc daf7 113d
00000340: e7c2 b13c 4592 20bd a83d a43d 7086 3b3d
00000350: 588e 0bbd 758e 273d 3c78 c9bd b2db d2bc
00000360: ec19 abbd f02c 6abe 834c 7fbd 3570 80bd
00000370: 914d b63b d521 8dbd b5bc 3cbd 9ed7 65bd
00000380: 690b bd3d cefa 70bc 7c59 2cbd ea1e 70be
00000390: 5157 cfbd d0bf bc3d 7043 b4bd 9f05 3dbe
000003a0: ea30 42bb a598 d0bd 9c9a b7bd 9d72 53be
000003b0: 3d29 e1bd ebf5 c6bd b96f 62bd 5e2e e73d
000003c0: 8f73 b8bd 3bb4 4cbe a381 8bbc 6566 19be
000003d0: 0ae7 aabd 8f12 c8bd 662b 8a3c 3d1d e6bc
000003e0: b94a 3c3d 6ed3 2cbd 09b3 c73d c3c9 083e
000003f0: a1ce 92bd 0153 24be 7f4c b7bd b27c 293d
-0.02914396 -0.0382623 0.051469263 0.14732142 -0.112524755 0.03246039 0.06485132 -0.04207046
0.016068203 -0.020416105 0.05151113 0.009529206 -0.20010157 -0.027314086 -0.07434918 -0.11062264
0.07042573 -0.07840035 0.016609808 -0.033494152 -0.059292715 -0.1104355 -0.021828933 -0.0970517
-0.01330112 -0.15021518 -0.034667403 -0.22026958 -0.13956243 -0.01740924 -0.15981022 -0.053104095
0.00786264 0.0023655756 -0.16491275 -0.13290285 -0.041607875 -0.079458505 -0.15318978 0.010257247
-0.013941698 0.02747044 -0.006285059 0.085030966 -0.054556295 0.007107876 0.0017338952 0.010358131
-0.11856036 -0.16198294 0.019829076 0.12350113 -0.070549265 -0.15003704 -0.01689261 -0.024964262
-0.10591861 0.061986227 0.014695864 0.053588692 -0.06478435 -0.027748108 -0.051196408 0.08206599
0.11159979 0.04019095 -0.061542675 -0.043803275 -0.12097095 0.055097517 -0.074384905 -0.10510062
-0.1291719 -0.02032321 -0.21326078 -0.034595355 -0.060951 0.025595391 -0.21880856 -0.07738022
0.009869957 -0.11926421 -0.03565011 -0.21063906 -0.032574717 -0.2573746 -0.04981755 0.0332598
0.054853708 -0.051158782 0.009417996 -0.029894946 0.101894006 0.004070761 -0.035033293 -0.020120779
-0.10357351 -0.119711876 0.025656784 0.0538967 -0.111985214 -0.21174733 -0.09573959 -0.034098424
-0.2186563 -0.07771305 -0.30395487 -0.024984594 -0.07442694 -0.028363492 0.0767324 -0.018468184
-0.015171702 0.07640646 0.038266648 -0.09790984 -0.13784643 0.103421494 0.06599389 -0.035605133
-0.07089802 -0.014630047 -0.03803739 -0.029244985 -0.12754352 0.04193515 -0.010404867 -0.047771152
-0.09238602 -0.0876143 -0.18961729 0.024539115 -0.13459115 0.13792415 -0.08910317 -0.07993424
-0.044365395 0.019675361 -0.034725197 0.06967304 -0.11565571 0.038072757 -0.03297328 -0.1235546
-0.13661866 -0.028425578 0.09598638 0.03871064 -0.00973957 0.07775233 0.009863643 -0.2619647
0.045058034 -0.09765341 0.09739954 -0.084591694 0.08432619 0.062489007 -0.40070307 -0.18399194
0.055801373 0.09593013 -0.019755892 -0.016971853 0.045116425 -0.023242531 0.09219671 0.17190905
-0.10694546 -0.010923391 -0.0110679455 -0.11532262 0.02639955 -0.048783638 -0.06379018 -0.10702495
0.048477136 -0.13329934 -0.09033209 -0.17968018 0.020774312 -0.08692636 -0.03433214 0.09387195
-0.0036672088 -0.15072945 -0.038976368 -0.17960578 -0.09455166 0.051751178 -0.013419775 -0.05523883
0.022117425 -0.05350697 -0.058434475 -0.03862464 -0.03614128 -0.1351246 0.04696052 -0.19696116
-0.08604512 -0.010774892 -0.091975555 0.05239157 -0.054356262 -0.089317545 -0.030546322 0.03563676
0.021699382 -0.039201993 0.080195725 0.045782506 -0.034071296 0.040907342 -0.09837386 -0.025739525
-0.083545536 -0.22868705 -0.062328827 -0.06271402 0.005563446 -0.068912186 -0.046078403 -0.05611383
0.09230692 -0.014708234 -0.042077526 -0.23449293 -0.10124076 0.09216273 -0.08801925 -0.18459176
-0.0029631206 -0.10185365 -0.08965036 -0.2064919 -0.10994194 -0.09714874 -0.05528233 0.11288141
-0.09006416 -0.19990627 -0.017029589 -0.14980467 -0.083448485 -0.09769165 0.016866397 -0.028090114
0.0459697 -0.042193823 0.09750945 0.13358216 -0.071683176 -0.16047288 -0.08950137 0.041378684

fc3.weight f4 [128, 256]
00000000: 61ac f8bc e1c7 973e f9ca 0bbd 0ed4 4cbc
00000010: 058c 563d 57b1 d6bc 3530 eaba 850e 70bd
00000020: d553 adbd 7426 933c a4d9 09be acde 5dbd
00000030: 4053 a93c 01ed 593e cbdf 1abc 0d46 64bd
00000040: ed19 86be b05e 1a3e 653d 1c3e 875d cd3d
00000050: 1eb4 d13c fb1c 63bd 5fb2 9ebe 1ea2 d03d
00000060: 8a17 99bd 14c2 793c a856 f5bd dcff 823b
00000070: 1660 963d 5185 27bd 46b9 4d3e 8fd1 6b3d
00000080: be6d b8be 94bc 27bc a625 a43d 0b5c 8ebd
00000090: b31a 72b9 c6c2 2dbe 0dd6 213d fdd2 97ba
000000a0: dfab d3bd 634b 5a3d f390 b23c 2744 743d
000000b0: 868d c73d 3a8e febc 2d0a 973d 8dba c03b
000000c0: 78ff b2bd d6f3 ad3d 5156 02bd 19dc 263c
000000d0: d3ba 4f3e aabe f4bc 56da 63bd 286d 883d
000000e0: e4aa 07bd d5a6 20be 66dc db3b 9771 04be
000000f0: b533 91bc c029 113d 7daf 20be 325c cabd
00000100: 4bb0 d2be d2b0 8dbe b3e3 d43d 48d1 ddbd
00000110: da73 0ebd 27d5 19be f6bd 63bd 6beb fb3c
00000120: d280 b4bc 183e f3bd d2db eb3d 3a3c 783d
00000130: 94c6 5bbd 0fc2 c53d 479e 683d 67a9 a2bc
00000140: b7a6 213d ce02 b7bd 9289 77bd 03b9 d43c
00000150: eb8f ce3c 910c fb3c fbcb 583d 57d1 90bd
00000160: 4fa6 1dbe ef2f 9d3d cca6 9cbd 9595 6cbd
00000170: 415d 1b3d 95df 9e3d 09d9 a53c bce7 183c
00000180: 56a3 9f3a f4f4 8b3d 9b09 043d 022b dcbd
00000190: 2297 5ebd 35ea 77be 5954 553d ff73 5e3d
000001a0: 6ec9 ae3d 512c d7bd 1018 debd 4f98 08bd
000001b0: d989 b8bc 5bb1 ad3d 702a 343d a1c7 d23d
000001c0: 9206 f63c 0a76 4b3c 6cef 44be 59f9 b93a
000001d0: 2cc6 2a3c 1d3f ec3b f835 6d3d 594d c43d
000001e0: f72c a93d 405e f33d da43 edbc 41bb 82be
000001f0: 060a 9bbe fc91 823d 011f 09be 5306 91bd
00000200: 46fb 4f3b 67eb 023e f7eb 083d dbd0 fb3d
00000210: 5641 52bd d886 553d 351c 93bd dfd8 b5bd
00000220: ce31 34bd 9d43 ad3d 1535 2bbe 7500 33bd
00000230: 82b4 f1bc 82f6 08be 52fd f1bd dffa 2fbc
00000240: d13b fdbe 7c78 53bd 4693 e83d 6657 8d3d
00000250: 7b62 123d e7df 01be c5ba 20be 7566 a03c
00000260: 9b85 61bc 6bec 15bd 7f94 93be 63e3 f8bd
00000270: de2f dc39 8abc 5abd 3e64 4cbe ac60 063c
00000280: 8251 0dbe 55d4 1f3c ed2d 10be fd7e 6bbd
00000290: 1dba eebc 4931 97be 0196 47be 2099 e2bc
000002a0: 2cba 893d 9eb0 583e 5770 babd 456f b3bc
000002b0: fbac d03d dc00 fabc 6ed0 55be 9d08 5b3d
000002c0: 7717 2cbe fb87 cf3c 8b8a ffbd a618 fabd
000002d0: c6ca 88bc e112 e43d 0fbc db3c 9aea 1fbe
000002e0: 8c83 9e3c 0263 1ebe d2aa 903d b97f 1ebc
000002f0: cffa 06bc 225b dab8 6f4f ff3c fa2e 83bd
00000300: 76d0 7b3d a106 bcbc 3878 84bd 16bb d03d
00000310: 11f7 44be b4a7 983d 681c f63d 296b f1bc
00000320: 2d34 c93b da5d 01bc 9b92 cc3d 2751 59be
00000330: 4edb ecbd c1b5 803d 86f2 943d 793b b43b
00000340: 24d5 793d 0752 5c3d 9cf9 55be 6dcd c23d
00000350: 0f62 923c 9193 d0bd 8938 a23d 6d8f fbbd
00000360: 1a45 ddbd d048 21be fdd5 4bbd 1f7f d0bd
00000370: 10f1 7a3d 2d95 e5bb 013e c6bc 1422 cc3b
00000380: 6c58 1a3d 4a85 00bb 4c27 f63b 324e 40bc
00000390: 94b5 78be ada7 96bd d684 aa3d 7f0e 3b3e
000003a0: 4c6f 00bd 936e 63bd 8faa df3d e85a 55bd
000003b0: fe94 d73d 0abe be3c 9962 053c 90c0 cc3d
000003c0: c5a8 be3c 25ce 963c 41bd 54bd f139 cd3d
000003d0: adba ce3d 3271 273d 9556 01bd 3865 3d3c
000003e0: 9c87 1ebd 3a30 65bc daa1 64bd 269a 8fbd
000003f0: 42a3 c9bc 4681 75bc e78a a03d 81cb 263e
-0.030355634 0.29644683 -0.034129117 -0.01250173 0.052379627 -0.02620761 -0.001786715 -0.058607597
-0.08463255 0.017962672 -0.1346193 -0.054167435 0.02066958 0.21281816 -0.00945277 -0.055730868
-0.26191655 0.15075183 0.15257795 0.100276046 0.025598582 -0.05544756 -0.3099546 0.101871714
-0.07475193 0.015244026 -0.11979419 0.003997786 0.07342546 -0.040898625 0.20090207 0.057572898
-0.36021227 -0.010237832 0.08014993 -0.069511496 -0.00023088865 -0.16968831 0.039510775 -0.0011583265
-0.10335516 0.05329455 0.021797633 0.059635308 0.0974379 -0.031073678 0.07374988 0.0058816136
-0.08740133 0.08493774 -0.0318206 0.010184311 0.20286112 -0.029876072 -0.055628143 0.06661445
-0.03312196 -0.15688641 0.006709623 -0.12933956 -0.017724851 0.035440207 -0.15691943 -0.09880866
-0.41150126 -0.27673966 0.10394993 -0.10830933 -0.034778453 -0.15022717 -0.055601083 0.030751904
-0.022034083 -0.11877078 0.11516537 0.06060431 -0.053656176 0.09656154 0.05679157 -0.019856168
0.039465632 -0.08936082 -0.06043393 0.025967127 0.02521511 0.03064564 0.052928906 -0.070711784
-0.15395473 0.07675158 -0.076490015 -0.05775984 0.03793073 0.07757489 0.020245092 0.0093325935
0.0012179415 0.068338305 0.032235723 -0.107503906 -0.05434335 -0.24210437 0.052082393 0.05430984
0.085345134 -0.105064996 -0.10844433 -0.033348378 -0.022526668 0.084810935 0.043985784 0.102919824
0.03003243 0.012418279 -0.19231957 0.0014188691 0.010423224 0.007209672 0.057912797 0.095850654
0.082605295 0.11883211 -0.028963018 -0.25533488 -0.30281085 0.063755006 -0.13390733 -0.070812844
0.0031735464 0.12785111 0.03342816 0.122956954 -0.05133184 0.05213055 -0.071831144 -0.088792555
-0.04399281 0.08460162 -0.16719468 -0.043701608 -0.029505018 -0.13375285 -0.11815895 -0.010740965
-0.494597 -0.051628575 0.11356215 0.069014356 0.03573845 -0.12683068 -0.15696247 0.019580105
-0.013764764 -0.03660242 -0.2882423 -0.121527456 0.00041997334 -0.05340246 -0.19960114 0.008201759
-0.13800624 0.009755214 -0.1408002 -0.057494152 -0.02914148 -0.2952979 -0.19490816 -0.027660906
0.067249626 0.21161124 -0.091034584 -0.021903643 0.101892434 -0.030517988 -0.20880291 0.05347501
-0.16805826 0.025333395 -0.12477597 -0.122117326 -0.016698252 0.11136413 0.026823072 -0.15616837
0.019349836 -0.15467456 0.070638314 -0.009674006 -0.008238508 -0.00010412025 0.031165807 -0.064054444
0.0614781 -0.02295238 -0.064682424 0.10191934 -0.19234873 0.07453862 0.12017137 -0.029470043
0.006140253 -0.007895911 0.099889 -0.21222363 -0.115652665 0.06284667 0.0727282 0.0055002538
0.060994282 0.053789165 -0.20896 0.09511838 0.017869024 -0.10184396 0.079209395 -0.12283216
-0.10804196 -0.15750432 -0.049764622 -0.101804964 0.06126505 -0.0070063085 -0.024199488 0.0062296484
0.037681982 -0.0019610696 0.007512009 -0.011737393 -0.24288017 -0.073562 0.08326118 0.18267249
-0.03135614 -0.055525374 0.10921203 -0.052088648 0.10526465 0.023283977 0.008141183 0.09997666
0.023273835 0.018408844 -0.0519383 0.10020817 0.10094199 0.040879436 -0.03157671 0.011559777
-0.038703546 -0.013988549 -0.055818416 -0.07011823 -0.02461398 -0.0149844345 0.078389935 0.16288568

fc3.bias f4 [128]
00000000: 6a45 77bd 36bc 93be 5deb e23c 35ca 903e
00000010: 9fcb 8dbe 35fc 063d 6bb8 e1bd acfb 0bbe
00000020: 8513 263e a1d9 923d 193c 45bd 4ecd 953d
00000030: 89a0 c03d 8f17 f03b 2e59 6b3e 180b d7bd
00000040: 8174 97bd 5238 cfbb 526f 11bd 57a2 393d
00000050: 7027 44bd fcad dd3d 3133 443e 80b2 0bba
00000060: ed3a 45be 8157 b23d 57ea f8bd 1ed7 55be
00000070: bad6 1dbe 7faf 1e3e b852 193e 19b2 0dbe
00000080: 0efa a9bd 7477 a13e 3f9c 95bd 64e9 873d
00000090: 6dfe 92bd 2187 0ebd 4dbe 29bd cb5b d9bc
000000a0: b0dc babd 5411 893d 5ed2 10bd 1b5f c7bd
000000b0: c89f f3bd 3bf7 fa3d 64e0 3b3d 9760 6b3d
000000c0: 8f7b 0ebd 2372 f8bd 1adc dcbd 9a3b 12bc
000000d0: d49d c43d 3cb1 903c 4525 343e 0c87 a2bd
000000e0: af66 013e 2bc0 c3bc b4ac 7fbd 0996 95bc
000000f0: cc84 94be e1bd 87bd 68b8 d53d 6421 c2bd
00000100: a1c5 2abe 92ce 1b3d 6a2a d73c c769 7a3e
00000110: e9a5 19be 63e2 15be 6837 edbd 3cf5 c6bc
00000120: c721 bfbc a660 bebd 86b4 e93d d84b e7bd
00000130: dace 523e bfc7 183d b098 893b d1bd 39be
00000140: fe7f 9dbd a743 0abd 1c48 0b3e 5a83 7fbc
00000150: 5b03 58bc b1a1 12be ee5c 86bd b076 1abe
00000160: a245 9f3d 44c6 3fbc cfa5 8fbd 0a69 85be
00000170: a07b 82be a7f5 fbbc 9016 e2bc 634d 363e
00000180: 5f36 a1bd 478d 6fbd cc5b 283e 893f 87ba
00000190: edb9 e0bd 80a4 0cbe 927e 6cbd 63d1 90bd
000001a0: 4f10 38be 6dea b9bd ae97 adbd b109 513c
000001b0: 44a3 28be d2e3 8439 145b 39bd d158 b43d
000001c0: 2789 50be 10f1 a6bd cbfb fbbc d4a6 7d3d
000001d0: fccd 9abd 7c9e 80bd 7065 8b3c 34b9 0e3e
000001e0: 6334 f7bd ff47 5a3d e8d3 d1bc f35f 533d
000001f0: 9181 db3d 2349 193d 9d1c c9bd 3f05 15be
-0.060368933 -0.2885453 0.02770012 0.28279272 -0.27694413 0.032955367 -0.11021503 -0.13670224
0.16218384 0.07170416 -0.048153017 0.073145494 0.0940562 0.007327027 0.22983238 -0.10500163
-0.07395268 -0.0063238526 -0.035506554 0.045320835 -0.047889173 0.108242005 0.19160153 -0.0005329028
-0.1926076 0.08708096 -0.12154072 -0.20882842 -0.15413943 0.15496634 0.14972961 -0.1383747
-0.08299647 0.31536448 -0.07305192 0.066363126 -0.07177434 -0.034796838 -0.04144125 -0.026533028
-0.09124124 0.06692758 -0.03535687 -0.09734937 -0.1189571 0.12254187 0.045868292 0.057465162
-0.034785803 -0.12131145 -0.107841685 -0.008925343 0.09600416 0.017662637 0.17592342 -0.079359144
0.12636827 -0.023895344 -0.062420562 -0.018260019 -0.29007566 -0.066280134 0.10435563 -0.09479025
-0.16676952 0.038038798 0.026265342 0.24454413 -0.15004696 -0.14637141 -0.115828335 -0.024286859
-0.023331536 -0.09295778 0.11411385 -0.11293763 0.2058672 0.037299868 0.00419911 -0.18138815
-0.07690428 -0.033755925 0.13601726 -0.0155952815 -0.013184394 -0.14319493 -0.06560694 -0.15084338
0.07776953 -0.011704985 -0.07014047 -0.260567 -0.25484943 -0.030756785 -0.02759865 0.17802958
-0.078716986 -0.058484342 0.16441268 -0.0010318618 -0.109729625 -0.13734627 -0.057737894 -0.07071187
-0.17974971 -0.09077916 -0.08476196 0.012758658 -0.16468531 0.0002534674 -0.045252874 0.08806003
-0.2036482 -0.08151448 -0.030759713 0.061926678 -0.0755882 -0.062802285 0.017016143 0.13937837
-0.12070539 0.053291317 -0.02561374 0.051605176 0.10718072 0.037423264 -0.09819911 -0.14552782

fc4.weight f4 [1, 128]
00000000: 6360 96bd 0404 dabc 2420 a7bd 04d3 013d
00000010: 8dde 75bc 2141 333c 3421 3e3c a36f 32bd
00000020: bb86 d03c defa 553d a71b 7b3d a367 37bd
00000030: b982 e13c 056f ae3c ae6c cf3c 5414 e5bc
00000040: 10c9 14bc 5a59 813c 7965 593d 7149 613d
00000050: 5760 093d 3139 c23c 11ee fd3c cdbf 3e3d
00000060: 4222 063d d1ac 063d fbf3 eabc 6c8a 893c
00000070: 1070 97bc e620 3a3d df80 9d3d 245a c3bc
00000080: 361f 26bd eb9e 173d 8e3c 963c 6bde ad3c
00000090: cc07 093d 6b95 97bb 7e11 ef3c c3fb 94bd
000000a0: 1082 15bc 2ee0 a73c 437f 4b3a 4e54 1f3d
000000b0: 1815 3e39 7ffb d83c 6d14 be3c 9afb 0c3d
000000c0: 0a94 75bd 377d 3c3d 7c7c 623a cfc4 e93c
000000d0: 2e14 f13c ffc3 8dbc 3030 2d3d 1b99 1bbd
000000e0: 5d02 9f3c a8df d03c 0beb 473d 7170 2fbd
000000f0: 15b1 003d 1519 4bbc ca02 a63d fdc1 e1bc
00000100: db3d 4bbc ec34 aa3c 835d 26bd 9d8e 1a3d
00000110: 9d97 9d3c 60b8 8abc fdd1 2cbc d087 5cbc
00000120: ac25 8abc 7475 543d c943 7d3d bfb6 bfbc
00000130: b60a a8bc d111 c83c 926b 4dbd 8fa8 febc
00000140: 96f4 5a3d b69b 343d 2bf6 543c 3589 0f3d
00000150: 5a58 a2bd 698f b6bc ad0b 393d 6154 8dbd
00000160: 34fd 24bd ab41 a03c eb57 553c 56b0 60bd
00000170: 9e7e 63bd d26f 80bd 9fde 9fbd 4b38 2c3d
00000180: b087 36bd 21df b6bc 0693 093d d7ce 913b
00000190: 73e1 91bc 750d 23bd 1bcb 1b3d c22f c0bc
000001a0: 9c89 b3bd 3425 023d a1fb 93bc 7017 a63c
000001b0: be1d b1bc 363f d0bd fc13 e63c 9f94 553c
000001c0: 69a6 cfbc dd5a bc3c 2ba9 5d3c 92c2 113d
000001d0: 3ff7 983d fe45 23bd 0846 57bc 19e4 bc3d
000001e0: 3d11 463d 0cf9 ec3c afec 39bd 43f9 1b3d
000001f0: 678d b03c 0432 653c 7c05 11bd 50e4 16bd
-0.07342603 -0.026613243 -0.08160427 0.03169538 -0.0150066735 0.010940821 0.011604596 -0.043563496
0.02545487 0.0522412 0.06130567 -0.04477657 0.027528154 0.021293173 0.025320377 -0.027963795
-0.00908114 0.015789676 0.053075287 0.05500168 0.033539142 0.023708912 0.030997308 0.046569634
0.032747515 0.032879654 -0.028680792 0.016789638 -0.018486053 0.04544153 0.07690596 -0.023846693
-0.04055711 0.03701679 0.018339422 0.021224221 0.0334547 -0.0046259663 0.029183146 -0.07274582
-0.009125248 0.02049264 0.0007762799 0.03889876 0.0001812767 0.02648711 0.0232031 0.034419633
-0.059955634 0.04601785 0.00086397654 0.028536228 0.029428568 -0.017305372 0.042282283 -0.03798781
0.019410307 0.025497273 0.04880814 -0.04283184 0.03141888 -0.012396117 0.08106001 -0.027558321
-0.012404884 0.020777188 -0.040616523 0.037733663 0.019237334 -0.01693362 -0.010548112 -0.013460115
-0.016863666 0.051869825 0.061832223 -0.02340257 -0.02051292 0.024422558 -0.050151415 -0.031086234
0.05345591 0.04409381 0.012998144 0.03504296 -0.07927008 -0.02228518 0.04517715 -0.069008596
-0.040280536 0.019562563 0.01302145 -0.054855667 -0.055540673 -0.06271328 -0.078061335 0.042045873
-0.044562995 -0.022323193 0.033587478 0.004449706 -0.017807698 -0.039807756 0.038035493 -0.023460273
-0.08766481 0.03177376 -0.018064322 0.020274848 -0.021620627 -0.101683065 0.028085701 0.013035922
-0.025347905 0.022992546 0.013529102 0.035585947 0.074690334 -0.03986167 -0.013139255 0.09223194
0.048356283 0.028927349 -0.045391735 0.03807951 0.0215518 0.013988975 -0.03540562 -0.03683883
